Models/Model2.tflite (tflite, 56976 bytes, 21 tensors)

model_1/logits/Conv2D i1 [9, 1, 1, 32]
00000000: 0eb5 e039 f137 76fb 94b6 ff7f 1ba0 5786
00000010: 9663 17ce ba67 027c 09a0 4001 2cec 87dc
00000020: 2117 fddc c2e2 f016 1cf9 1114 d518 2649
00000030: 4802 daeb e316 17e4 e600 d781 b911 2ec2
00000040: dc3d eb14 b859 0456 4681 47c6 b85f 4525
00000050: acfc ec2f dfec b4ff d4bd fafd db25 0a39
00000060: 2dc3 2723 97cb 4136 7442 e6af 5d25 b3b2
00000070: d181 ee0f 62cc bd35 0fdf 41aa cd7c 33b5
00000080: ceeb f4e0 4d48 b747 12bd e2da 53f6 58bb
00000090: 2f52 0a17 380e 81f8 0803 a8bd aa2b 272d
000000a0: 454b 6569 a4bc 81cd d3f8 e7de e947 010c
000000b0: 72a8 313e c068 8434 9a9d 3dc0 08c2 62c4
000000c0: 3e06 02eb 3539 eac4 dd03 102c 0426 1c2e
000000d0: 0bad 38f3 c9c5 c72f fce4 f781 c24c 431f
000000e0: c77f 7ebd 18d6 924d fd88 053f b3fc eecf
000000f0: 3e07 c9a7 7f94 a9c3 0d0e e1fa b714 30cc
14 -75 -32 57 -15 55 118 -5
-108 -74 -1 127 27 -96 87 -122
-106 99 23 -50 -70 103 2 124
9 -96 64 1 44 -20 -121 -36
33 23 -3 -36 -62 -30 -16 22
28 -7 17 20 -43 24 38 73
72 2 -38 -21 -29 22 23 -28
-26 0 -41 -127 -71 17 46 -62
-36 61 -21 20 -72 89 4 86
70 -127 71 -58 -72 95 69 37
-84 -4 -20 47 -33 -20 -76 -1
-44 -67 -6 -3 -37 37 10 57
45 -61 39 35 -105 -53 65 54
116 66 -26 -81 93 37 -77 -78
-47 -127 -18 15 98 -52 -67 53
15 -33 65 -86 -51 124 51 -75
-50 -21 -12 -32 77 72 -73 71
18 -67 -30 -38 83 -10 88 -69
47 82 10 23 56 14 -127 -8
8 3 -88 -67 -86 43 39 45
69 75 101 105 -92 -68 -127 -51
-45 -8 -25 -34 -23 71 1 12
114 -88 49 62 -64 104 -124 52
-102 -99 61 -64 8 -62 98 -60
62 6 2 -21 53 57 -22 -60
-35 3 16 44 4 38 28 46
11 -83 56 -13 -55 -59 -57 47
-4 -28 -9 -127 -62 76 67 31
-57 127 126 -67 24 -42 -110 77
-3 -120 5 63 -77 -4 -18 -49
62 7 -55 -89 127 -108 -87 -61
13 14 -31 -6 -73 20 48 -52

model_1/head/Conv2D i1 [32, 1, 1, 96]
00000000: dde3 5aed 7a02 a3a4 1cd8 97f9 5116 d432
00000010: d5e2 8ac1 cc91 0f6b 98ed 48c4 5cff f0b3
00000020: 5bcb a05f a2b8 be17 48bd 9075 2ba3 65f0
00000030: 1ea9 fd5f bbce b867 2a3d 7f9f c441 e338
00000040: fe0f 374d 254a 6798 6e9c 4f50 a51b c0fe
00000050: 2b32 71f6 c8ec a869 2368 df99 153f 01ed
00000060: c613 bcf5 0965 2819 30a5 a845 3be3 024b
00000070: 6db7 147f d6fa 2a26 402d c546 0218 5dc9
00000080: 3871 0019 2943 0ece c50d deb7 b82e edc2
00000090: e4b2 734e 0355 c8d5 1a75 6c5d c634 dca4
000000a0: ee2e 412f 7919 3212 af5b e22f 62e3 df1c
000000b0: b755 d9a2 1d78 c9d3 5053 3efb 577a 2df5
000000c0: 2125 ca50 dfd2 4559 ba4e e663 49ef 38ac
000000d0: cae9 3b3a b5ef 550e f246 57ff c352 4656
000000e0: d1f5 81ac b04e 65f0 a1b2 09fe bb6b f0bf
000000f0: 5c22 5ec0 e73c 1c1b c55c e002 fd09 eb47
-35 -29 90 -19 122 2 -93 -92
28 -40 -105 -7 81 22 -44 50
-43 -30 -118 -63 -52 -111 15 107
-104 -19 72 -60 92 -1 -16 -77
91 -53 -96 95 -94 -72 -66 23
72 -67 -112 117 43 -93 101 -16
30 -87 -3 95 -69 -50 -72 103
42 61 127 -97 -60 65 -29 56
-2 15 55 77 37 74 103 -104
110 -100 79 80 -91 27 -64 -2
43 50 113 -10 -56 -20 -88 105
35 104 -33 -103 21 63 1 -19
-58 19 -68 -11 9 101 40 25
48 -91 -88 69 59 -29 2 75
109 -73 20 127 -42 -6 42 38
64 45 -59 70 2 24 93 -55
56 113 0 25 41 67 14 -50
-59 13 -34 -73 -72 46 -19 -62
-28 -78 115 78 3 85 -56 -43
26 117 108 93 -58 52 -36 -92
-18 46 65 47 121 25 50 18
-81 91 -30 47 98 -29 -33 28
-73 85 -39 -94 29 120 -55 -45
80 83 62 -5 87 122 45 -11
33 37 -54 80 -33 -46 69 89
-70 78 -26 99 73 -17 56 -84
-54 -23 59 58 -75 -17 85 14
-14 70 87 -1 -61 82 70 86
-47 -11 -127 -84 -80 78 101 -16
-95 -78 9 -2 -69 107 -16 -65
92 34 94 -64 -25 60 28 27
-59 92 -32 2 -3 9 -21 71

model_1/block_6_expand/Conv2D i1 [96, 1, 1, 16]
00000000: da7f 1581 d5e1 e5d8 e71d e536 06bc 044e
00000010: e02d b1ec d1d2 169e 442d a20d 2613 4481
00000020: 044a db09 0724 de99 5bda de02 ba7f e23a
00000030: 25f6 05b4 eccb ea09 5c04 2c07 031f 237f
00000040: ac73 f215 f5fa 1724 0807 11d8 81f9 1c41
00000050: 0649 7307 1f43 bd69 d943 e7cd 25c1 8117
00000060: 32f3 7a84 1523 006a c581 40e1 fa4a ef5e
00000070: 2b7f ddba 4315 1eb8 5840 ec09 2d00 5a53
00000080: 14cd 0bb8 0dcd 12bf 1318 36f7 f77f 5248
00000090: 15dd f67f 22db 23af cb63 1bf5 00c1 e5fc
000000a0: f5f1 de81 0401 e21b 0df2 1cfd f9d3 fa12
000000b0: ef1f 0ed6 70f2 70d9 9636 0c11 ed7f b7e7
000000c0: 6321 81e6 08f5 4b24 1d23 a0d3 c151 e412
000000d0: 03f7 eb0a fe81 0212 fce9 1112 08f6 1415
000000e0: 0bce 53e7 23f4 81b2 e5e4 2819 23ae d8d6
000000f0: ab26 31d7 00fd 7f76 9f45 59db f943 4731
-38 127 21 -127 -43 -31 -27 -40
-25 29 -27 54 6 -68 4 78
-32 45 -79 -20 -47 -46 22 -98
68 45 -94 13 38 19 68 -127
4 74 -37 9 7 36 -34 -103
91 -38 -34 2 -70 127 -30 58
37 -10 5 -76 -20 -53 -22 9
92 4 44 7 3 31 35 127
-84 115 -14 21 -11 -6 23 36
8 7 17 -40 -127 -7 28 65
6 73 115 7 31 67 -67 105
-39 67 -25 -51 37 -63 -127 23
50 -13 122 -124 21 35 0 106
-59 -127 64 -31 -6 74 -17 94
43 127 -35 -70 67 21 30 -72
88 64 -20 9 45 0 90 83
20 -51 11 -72 13 -51 18 -65
19 24 54 -9 -9 127 82 72
21 -35 -10 127 34 -37 35 -81
-53 99 27 -11 0 -63 -27 -4
-11 -15 -34 -127 4 1 -30 27
13 -14 28 -3 -7 -45 -6 18
-17 31 14 -42 112 -14 112 -39
-106 54 12 17 -19 127 -73 -25
99 33 -127 -26 8 -11 75 36
29 35 -96 -45 -63 81 -28 18
3 -9 -21 10 -2 -127 2 18
-4 -23 17 18 8 -10 20 21
11 -50 83 -25 35 -12 -127 -78
-27 -28 40 25 35 -82 -40 -42
-85 38 49 -41 0 -3 127 118
-97 69 89 -37 -7 67 71 49

model_1/block_5_project/Conv2D i1 [16, 1, 1, 96]
00000000: f6eb 13e8 08f8 eff0 07ec faff ef11 ec23
00000010: 000f fe02 04e0 1306 0203 027f 19f1 2205
00000020: 0a0f 0dff f400 e7fb f402 0624 0313 0e01
00000030: 2001 f404 fff8 f245 fc0b e9e0 0412 ebe3
00000040: e0cc 001b 15ff 0afe f9dd f1f8 e112 f8fe
00000050: feee 1602 02fe f3ba 08f5 0df9 34ed f4e7
00000060: 41c0 94d5 7fe2 1028 f0b8 e3e0 ede2 d444
00000070: d20b 2c2e 0411 dea7 f7fd ecb8 0ed4 cb23
00000080: e2e6 0f11 1c22 2701 f31f c922 e428 00dd
00000090: feae 0aa0 f102 2c21 f2e9 b1dd 0aee 19d4
000000a0: b059 e0ef fac5 fe03 28a6 e611 dcc4 2efa
000000b0: 0aec 1705 c6eb d702 eada f109 22f0 2178
000000c0: e342 d60f 544a f362 3683 f2de f60d 44f0
000000d0: 1bc2 ed5a 1613 4a28 1e0b 169d 23e0 46b4
000000e0: 1352 d11c 8fd4 fd10 12f5 29ad 1f0d f84a
000000f0: e027 e106 7714 e62d 1411 11f6 2f16 21d2
-10 -21 19 -24 8 -8 -17 -16
7 -20 -6 -1 -17 17 -20 35
0 15 -2 2 4 -32 19 6
2 3 2 127 25 -15 34 5
10 15 13 -1 -12 0 -25 -5
-12 2 6 36 3 19 14 1
32 1 -12 4 -1 -8 -14 69
-4 11 -23 -32 4 18 -21 -29
-32 -52 0 27 21 -1 10 -2
-7 -35 -15 -8 -31 18 -8 -2
-2 -18 22 2 2 -2 -13 -70
8 -11 13 -7 52 -19 -12 -25
65 -64 -108 -43 127 -30 16 40
-16 -72 -29 -32 -19 -30 -44 68
-46 11 44 46 4 17 -34 -89
-9 -3 -20 -72 14 -44 -53 35
-30 -26 15 17 28 34 39 1
-13 31 -55 34 -28 40 0 -35
-2 -82 10 -96 -15 2 44 33
-14 -23 -79 -35 10 -18 25 -44
-80 89 -32 -17 -6 -59 -2 3
40 -90 -26 17 -36 -60 46 -6
10 -20 23 5 -58 -21 -41 2
-22 -38 -15 9 34 -16 33 120
-29 66 -42 15 84 74 -13 98
54 -125 -14 -34 -10 13 68 -16
27 -62 -19 90 22 19 74 40
30 11 22 -99 35 -32 70 -76
19 82 -47 28 -113 -44 -3 16
18 -11 41 -83 31 13 -8 74
-32 39 -31 6 119 20 -26 45
20 17 17 -10 47 22 33 -46

model_1/block_5_depthwise_BN/FusedBatchNormV3;model_1/block_5_depthwise/depthwise;model_1/block_6_expand/Conv2D i1 [1, 3, 3, 96]
00000000: ccba f77f 164e 51c5 f4ec effb e402 2204
00000010: f5d7 1a15 1881 7f0a ae05 2fe2 8181 2919
00000020: 1127 3ceb e0f8 1ff8 f11d 964e 16c1 2730
00000030: ec3b e716 00f7 0d31 9fcb c3ec f701 0927
00000040: 45e5 4a0f fd13 137f 191a 2003 f611 7ffd
00000050: f011 ea15 7f19 b8f0 03de edd9 04e5 ee1e
00000060: 7f81 486b d57f 2988 4702 ef7f 7f9f f315
00000070: 087f 7d90 7fb1 5247 818d bedb cc31 c7eb
00000080: a239 81ab d3f2 d139 027f 7f55 d096 94d0
00000090: ef81 2b57 45e0 2a55 cd2a b58e d7d9 c542
000000a0: 4abf 1e22 b923 ee5d 737f 0c15 ff39 e138
000000b0: 427c 7fea fb52 927f 8da0 0281 a581 d86d
000000c0: b1f3 1bb1 0ef3 47f8 50dc e514 effb f7f9
000000d0: f5f7 06fc ef95 2103 8771 07c5 7a35 f208
000000e0: 031b 0adf f622 1607 1e0e 8c4a 11f0 2712
000000f0: f112 f108 f1ff fa14 b606 de36 032a 2302
-52 -70 -9 127 22 78 81 -59
-12 -20 -17 -5 -28 2 34 4
-11 -41 26 21 24 -127 127 10
-82 5 47 -30 -127 -127 41 25
17 39 60 -21 -32 -8 31 -8
-15 29 -106 78 22 -63 39 48
-20 59 -25 22 0 -9 13 49
-97 -53 -61 -20 -9 1 9 39
69 -27 74 15 -3 19 19 127
25 26 32 3 -10 17 127 -3
-16 17 -22 21 127 25 -72 -16
3 -34 -19 -39 4 -27 -18 30
127 -127 72 107 -43 127 41 -120
71 2 -17 127 127 -97 -13 21
8 127 125 -112 127 -79 82 71
-127 -115 -66 -37 -52 49 -57 -21
-94 57 -127 -85 -45 -14 -47 57
2 127 127 85 -48 -106 -108 -48
-17 -127 43 87 69 -32 42 85
-51 42 -75 -114 -41 -39 -59 66
74 -65 30 34 -71 35 -18 93
115 127 12 21 -1 57 -31 56
66 124 127 -22 -5 82 -110 127
-115 -96 2 -127 -91 -127 -40 109
-79 -13 27 -79 14 -13 71 -8
80 -36 -27 20 -17 -5 -9 -7
-11 -9 6 -4 -17 -107 33 3
-121 113 7 -59 122 53 -14 8
3 27 10 -33 -10 34 22 7
30 14 -116 74 17 -16 39 18
-15 18 -15 8 -15 -1 -6 20
-74 6 -34 54 3 42 35 2

model_1/block_5_expand/Conv2D i1 [96, 1, 1, 16]
00000000: ee33 ce3f 2021 1ef4 ff2b cf4f 0c81 ff93
00000010: 0830 e6dd 02ed 6381 f667 cccf efdf 021d
00000020: 813d c5c7 e80d 2642 e42d 58da ca10 0cd4
00000030: ba39 ff65 f539 7f64 4257 ca29 49bb c0bf
00000040: 0501 414d fb54 e430 2ee8 1013 fd1f 81e2
00000050: fcfa 16e8 08ea fe1d cd38 0c81 fb0c ce0e
00000060: 0cf2 27e6 243d bbc4 f9e3 2cf8 7ffd fbd0
00000070: 002c 7fe0 f4e6 29e7 c812 a5dc fb03 2f15
00000080: 2436 333e d961 ec55 2cf4 0791 e0fa 81ce
00000090: 50b0 7a38 e519 1d3a 57f3 1dee e301 810b
000000a0: 04c1 f2f0 c5f9 f221 4c6f 0702 eb33 7ff4
000000b0: eee8 fd81 35cc ba8b 0206 ecdb e7ea 11c7
000000c0: fb18 18cc a9e2 8cfd c8b7 df0f 4d7f 5910
000000d0: 1381 b709 2a8a 03fc 1c01 22ef f600 6b2f
000000e0: e3c0 2713 402d 0b5b 113f 22d4 dc1c 9e7f
000000f0: edf6 f020 fe08 5b01 eb81 0fbd fbe0 f9f1
-18 51 -50 63 32 33 30 -12
-1 43 -49 79 12 -127 -1 -109
8 48 -26 -35 2 -19 99 -127
-10 103 -52 -49 -17 -33 2 29
-127 61 -59 -57 -24 13 38 66
-28 45 88 -38 -54 16 12 -44
-70 57 -1 101 -11 57 127 100
66 87 -54 41 73 -69 -64 -65
5 1 65 77 -5 84 -28 48
46 -24 16 19 -3 31 -127 -30
-4 -6 22 -24 8 -22 -2 29
-51 56 12 -127 -5 12 -50 14
12 -14 39 -26 36 61 -69 -60
-7 -29 44 -8 127 -3 -5 -48
0 44 127 -32 -12 -26 41 -25
-56 18 -91 -36 -5 3 47 21
36 54 51 62 -39 97 -20 85
44 -12 7 -111 -32 -6 -127 -50
80 -80 122 56 -27 25 29 58
87 -13 29 -18 -29 1 -127 11
4 -63 -14 -16 -59 -7 -14 33
76 111 7 2 -21 51 127 -12
-18 -24 -3 -127 53 -52 -70 -117
2 6 -20 -37 -25 -22 17 -57
-5 24 24 -52 -87 -30 -116 -3
-56 -73 -33 15 77 127 89 16
19 -127 -73 9 42 -118 3 -4
28 1 34 -17 -10 0 107 47
-29 -64 39 19 64 45 11 91
17 63 34 -44 -36 28 -98 127
-19 -10 -16 32 -2 8 91 1
-21 -127 15 -67 -5 -32 -7 -15

model_1/block_4_project/Conv2D i1 [16, 1, 1, 96]
00000000: fb1a eb0e 4048 eafe 2612 ef08 ff12 1739
00000010: 0201 04f4 6bc5 fbe9 dff5 caac 2bf8 3834
00000020: 72f6 0ff8 fff9 0910 da0a 23c7 20e6 f010
00000030: ec19 0aff cff7 f408 3925 e1c7 d219 1103
00000040: ff0f 560f 0404 03e3 a1fb feff fbb1 0803
00000050: 22f6 c6c2 25ee 0706 1108 0fce 2120 037f
00000060: 318d 1864 e0a2 e7aa f3c3 f422 0f8f c3ad
00000070: a406 2a23 d181 d415 7dbf b928 ed4c 0328
00000080: e7f0 c00e f8ad 68e8 03b5 3beb b70b 39f7
00000090: 32ff 09c3 4a86 2eec e327 d19f 1dae 2db9
000000a0: 0899 1503 243b e9fb 9f26 0a5a 2953 26fd
000000b0: 2b35 b812 9c3f 0a4d defa 0b01 f4d7 13fd
000000c0: 0f0d 17e2 1405 fd20 3a07 0935 0af6 1e1a
000000d0: f1f4 e20a e5d5 16da f8f0 f016 e713 56d0
000000e0: 22cb 0c2a 137f b2f3 e9e4 ec3c eb9a e207
000000f0: 1518 d7f1 2713 fcb4 f501 0e24 f709 4567
-5 26 -21 14 64 72 -22 -2
38 18 -17 8 -1 18 23 57
2 1 4 -12 107 -59 -5 -23
-33 -11 -54 -84 43 -8 56 52
114 -10 15 -8 -1 -7 9 16
-38 10 35 -57 32 -26 -16 16
-20 25 10 -1 -49 -9 -12 8
57 37 -31 -57 -46 25 17 3
-1 15 86 15 4 4 3 -29
-95 -5 -2 -1 -5 -79 8 3
34 -10 -58 -62 37 -18 7 6
17 8 15 -50 33 32 3 127
49 -115 24 100 -32 -94 -25 -86
-13 -61 -12 34 15 -113 -61 -83
-92 6 42 35 -47 -127 -44 21
125 -65 -71 40 -19 76 3 40
-25 -16 -64 14 -8 -83 104 -24
3 -75 59 -21 -73 11 57 -9
50 -1 9 -61 74 -122 46 -20
-29 39 -47 -97 29 -82 45 -71
8 -103 21 3 36 59 -23 -5
-97 38 10 90 41 83 38 -3
43 53 -72 18 -100 63 10 77
-34 -6 11 1 -12 -41 19 -3
15 13 23 -30 20 5 -3 32
58 7 9 53 10 -10 30 26
-15 -12 -30 10 -27 -43 22 -38
-8 -16 -16 22 -25 19 86 -48
34 -53 12 42 19 127 -78 -13
-23 -28 -20 60 -21 -102 -30 7
21 24 -41 -15 39 19 -4 -76
-11 1 14 36 -9 9 69 103

model_1/block_4_depthwise_BN/FusedBatchNormV3;model_1/block_4_depthwise/depthwise;model_1/block_6_expand/Conv2D i1 [1, 3, 3, 96]
00000000: ef0c ea6d f114 bfcb 13fa 64f5 03f8 fc37
00000010: 0711 de02 4aff 23df 0211 2a2e 180d 1832
00000020: fe19 05f0 0335 b9e7 1607 1a0e acc9 1dfb
00000030: f5ed f9f7 3204 f502 fcdb 1ae3 1d00 7f1b
00000040: f1f7 0acf 4723 02fd 54e0 4906 1082 1f43
00000050: 000c 7ff0 271c e4f2 20fa ef51 fe12 fe0f
00000060: d011 f60c 37f9 f481 2410 81fe eff5 0358
00000070: 14e6 f5ee 4d9f 7f1a c1e1 94f0 1f26 cf13
00000080: 7709 f0fe e77f c581 0bed e00d 2e81 7fd3
00000090: b432 3006 2ac0 1d34 2426 9b55 7f21 01ec
000000a0: 2bdd 9dfc 27e1 ee2c d4ce 6efe e2c9 e044
000000b0: be43 ee06 f62e 3add e436 f24a 81de 1881
000000c0: 0201 e7b3 0b13 2516 fe01 043e fff4 f50a
000000d0: f50e ed0e 0716 1ae0 02e2 070b ff03 2fb1
000000e0: 2d0e 06e9 0c08 d5ee 0a01 ec05 18e3 1701
000000f0: 07f6 06f8 0605 f608 f728 09fe 0cf1 00f0
-17 12 -22 109 -15 20 -65 -53
19 -6 100 -11 3 -8 -4 55
7 17 -34 2 74 -1 35 -33
2 17 42 46 24 13 24 50
-2 25 5 -16 3 53 -71 -25
22 7 26 14 -84 -55 29 -5
-11 -19 -7 -9 50 4 -11 2
-4 -37 26 -29 29 0 127 27
-15 -9 10 -49 71 35 2 -3
84 -32 73 6 16 -126 31 67
0 12 127 -16 39 28 -28 -14
32 -6 -17 81 -2 18 -2 15
-48 17 -10 12 55 -7 -12 -127
36 16 -127 -2 -17 -11 3 88
20 -26 -11 -18 77 -97 127 26
-63 -31 -108 -16 31 38 -49 19
119 9 -16 -2 -25 127 -59 -127
11 -19 -32 13 46 -127 127 -45
-76 50 48 6 42 -64 29 52
36 38 -101 85 127 33 1 -20
43 -35 -99 -4 39 -31 -18 44
-44 -50 110 -2 -30 -55 -32 68
-66 67 -18 6 -10 46 58 -35
-28 54 -14 74 -127 -34 24 -127
2 1 -25 -77 11 19 37 22
-2 1 4 62 -1 -12 -11 10
-11 14 -19 14 7 22 26 -32
2 -30 7 11 -1 3 47 -79
45 14 6 -23 12 8 -43 -18
10 1 -20 5 24 -29 23 1
7 -10 6 -8 6 5 -10 8
-9 40 9 -2 12 -15 0 -16

model_1/block_4_expand/Conv2D i1 [96, 1, 1, 16]
00000000: 2fd3 4263 4bfb 47c0 7dd7 e7af 3f53 0681
00000010: 287f d1f5 4902 550c 4b65 de74 dbd9 6894
00000020: 28dd fe07 e82f d31c bdb9 e968 df81 389c
00000030: 757b ed27 81fa c9b6 f813 7db4 bc41 c2dc
00000040: 01e6 0a0f d43a e817 e8c0 ffed da81 2404
00000050: 4ed0 ecfb df81 e919 e918 a8dc 3901 1021
00000060: 90c8 e961 a107 ee20 81b2 a3ca 183e e168
00000070: d110 ab40 3081 fa2f 03fa 0d0d 020d d00e
00000080: 27d9 eaf8 1e12 ebc0 ef13 ba00 8107 0f0c
00000090: 13b5 557f f906 ffbb 7c99 0bdd 0e3e bc1f
000000a0: a2ac 03bc 4b1a 234a 35af 9b19 7f91 875b
000000b0: 26f1 811d 2a15 cf2a fae8 e7fc 0519 be0d
000000c0: 7bc0 1210 e7dc f1d2 2be2 81db adf7 f52a
000000d0: 6291 10c1 5d30 8dce 1781 09ea f806 06f2
000000e0: e60d bce0 3b81 2ed8 3025 f6b2 1c4f f405
000000f0: 0111 321a 38e8 d401 24b9 c6e1 81e3 043f
47 -45 66 99 75 -5 71 -64
125 -41 -25 -81 63 83 6 -127
40 127 -47 -11 73 2 85 12
75 101 -34 116 -37 -39 104 -108
40 -35 -2 7 -24 47 -45 28
-67 -71 -23 104 -33 -127 56 -100
117 123 -19 39 -127 -6 -55 -74
-8 19 125 -76 -68 65 -62 -36
1 -26 10 15 -44 58 -24 23
-24 -64 -1 -19 -38 -127 36 4
78 -48 -20 -5 -33 -127 -23 25
-23 24 -88 -36 57 1 16 33
-112 -56 -23 97 -95 7 -18 32
-127 -78 -93 -54 24 62 -31 104
-47 16 -85 64 48 -127 -6 47
3 -6 13 13 2 13 -48 14
39 -39 -22 -8 30 18 -21 -64
-17 19 -70 0 -127 7 15 12
19 -75 85 127 -7 6 -1 -69
124 -103 11 -35 14 62 -68 31
-94 -84 3 -68 75 26 35 74
53 -81 -101 25 127 -111 -121 91
38 -15 -127 29 42 21 -49 42
-6 -24 -25 -4 5 25 -66 13
123 -64 18 16 -25 -36 -15 -46
43 -30 -127 -37 -83 -9 -11 42
98 -111 16 -63 93 48 -115 -50
23 -127 9 -22 -8 6 6 -14
-26 13 -68 -32 59 -127 46 -40
48 37 -10 -78 28 79 -12 5
1 17 50 26 56 -24 -44 1
36 -71 -58 -31 -127 -29 4 63

model_1/block_3_project/Conv2D i1 [16, 1, 1, 48]
00000000: effa ef0a 16fe fd59 cc12 21ef 16f1 f60a
00000010: 10f0 060e 3506 107a ec4e f4e9 1beb 12ed
00000020: ea32 17d0 1734 11ee 9aef 1630 2414 81d4
00000030: dcef 0b1a dafe 0034 cdd9 ffdc e5e5 0404
00000040: dc74 f307 0601 e4f7 1bd3 1c1a e6b1 db11
00000050: eaf9 1e02 fdda 0507 f3e5 7f0f 04f7 0fef
00000060: ecfb f9da f8bf 06f0 050f 0718 0b08 ea09
00000070: 02ee e7f1 f9fb fd81 004c e900 05e9 fcfd
00000080: f639 0a09 190e 1efa d806 eef6 04f4 1005
00000090: fe21 02e6 00fb 00fb edf7 fe23 8109 fffc
000000a0: 0100 f105 df05 0512 f9f4 0019 fc1b 0110
000000b0: 0a01 140e f61c 2306 0c04 1be8 03fb 020c
000000c0: 26dd 0aff 131c 13ef d807 f6e0 0113 ff09
000000d0: 14f5 b30a f814 154b fde7 0030 05af 1604
000000e0: 14e5 2481 1525 041e eb0d 08df f8e9 0909
000000f0: 24f5 f241 fef1 ff16 07fd 2907 0537 0601
-17 -6 -17 10 22 -2 -3 89
-52 18 33 -17 22 -15 -10 10
16 -16 6 14 53 6 16 122
-20 78 -12 -23 27 -21 18 -19
-22 50 23 -48 23 52 17 -18
-102 -17 22 48 36 20 -127 -44
-36 -17 11 26 -38 -2 0 52
-51 -39 -1 -36 -27 -27 4 4
-36 116 -13 7 6 1 -28 -9
27 -45 28 26 -26 -79 -37 17
-22 -7 30 2 -3 -38 5 7
-13 -27 127 15 4 -9 15 -17
-20 -5 -7 -38 -8 -65 6 -16
5 15 7 24 11 8 -22 9
2 -18 -25 -15 -7 -5 -3 -127
0 76 -23 0 5 -23 -4 -3
-10 57 10 9 25 14 30 -6
-40 6 -18 -10 4 -12 16 5
-2 33 2 -26 0 -5 0 -5
-19 -9 -2 35 -127 9 -1 -4
1 0 -15 5 -33 5 5 18
-7 -12 0 25 -4 27 1 16
10 1 20 14 -10 28 35 6
12 4 27 -24 3 -5 2 12
38 -35 10 -1 19 28 19 -17
-40 7 -10 -32 1 19 -1 9
20 -11 -77 10 -8 20 21 75
-3 -25 0 48 5 -81 22 4
20 -27 36 -127 21 37 4 30
-21 13 8 -33 -8 -23 9 9
36 -11 -14 65 -2 -15 -1 22
7 -3 41 7 5 55 6 1

model_1/block_3_depthwise_BN/FusedBatchNormV3;model_1/block_3_depthwise/depthwise i1 [1, 3, 3, 48]
00000000: 46a2 6144 33dd 66be 3aa1 b02e 37d5 b5a5
00000010: 6653 304b 46b9 ac33 e1d4 c0be bb3e c28d
00000020: f12b 4641 bc33 ccea 31b7 393f a40b 48e0
00000030: 529d 7f53 b0bb c6ac 5f97 bf46 5294 a057
00000040: da64 517f 5792 3446 ceaf b8ad 374f e381
00000050: aa53 5254 ad53 aef2 4ca4 5359 b781 5a9c
00000060: 27cd 4325 10d5 cfd8 2cde 0620 1fb6 cafe
00000070: c928 2245 23cd 1f1a e6d0 d5e8 2121 5aa4
00000080: ab2e 2523 e028 dbf6 28d6 222b fcf6 23b9
00000090: 5b8f d75b 35ac 7fa5 588d b851 5598 f381
000000a0: 7f6f 4bd9 5669 8149 47b4 a09e 8154 bbf9
000000b0: a447 6b62 a951 af59 549b 595c a86d 5da7
000000c0: 7f81 bf7f 8181 a681 7f81 817f 7f81 ea5e
000000d0: bc7f 7fcd 7f7f 487f 7f81 8181 347f e314
000000e0: 817f 7f7f 817f 817f 7f81 7f7f 81f5 7f81
000000f0: 41b1 de42 25c0 cdc1 38d1 c338 30cb f20a
70 -94 97 68 51 -35 102 -66
58 -95 -80 46 55 -43 -75 -91
102 83 48 75 70 -71 -84 51
-31 -44 -64 -66 -69 62 -62 -115
-15 43 70 65 -68 51 -52 -22
49 -73 57 63 -92 11 72 -32
82 -99 127 83 -80 -69 -58 -84
95 -105 -65 70 82 -108 -96 87
-38 100 81 127 87 -110 52 70
-50 -81 -72 -83 55 79 -29 -127
-86 83 82 84 -83 83 -82 -14
76 -92 83 89 -73 -127 90 -100
39 -51 67 37 16 -43 -49 -40
44 -34 6 32 31 -74 -54 -2
-55 40 34 69 35 -51 31 26
-26 -48 -43 -24 33 33 90 -92
-85 46 37 35 -32 40 -37 -10
40 -42 34 43 -4 -10 35 -71
91 -113 -41 91 53 -84 127 -91
88 -115 -72 81 85 -104 -13 -127
127 111 75 -39 86 105 -127 73
71 -76 -96 -98 -127 84 -69 -7
-92 71 107 98 -87 81 -81 89
84 -101 89 92 -88 109 93 -89
127 -127 -65 127 -127 -127 -90 -127
127 -127 -127 127 127 -127 -22 94
-68 127 127 -51 127 127 72 127
127 -127 -127 -127 52 127 -29 20
-127 127 127 127 -127 127 -127 127
127 -127 127 127 -127 -11 127 -127
65 -79 -34 66 37 -64 -51 -63
56 -47 -61 56 48 -53 -14 10

model_1/block_3_expand/Conv2D i1 [48, 1, 1, 8]
00000000: 81fa 0240 db26 18e5 052d 150f 1ddd 597f
00000010: b310 3200 81e3 1606 47f8 f381 9215 1aea
00000020: 8132 f1f8 33f3 2505 99d5 15e7 8107 fb48
00000030: e181 19e7 060b f711 bdf1 025a 7fe5 dc0b
00000040: 6af1 ff81 08dd b2d6 0982 10e7 ef7f d342
00000050: 9004 fe13 8131 48e6 6414 2717 d4e2 ef81
00000060: fc13 28ff 08a0 7f3c 29de fdf2 657f 69da
00000070: 7f31 0513 b3f5 f0fa db81 1eea 090c 021c
00000080: ccdc e700 81fe 0b17 f363 8e01 f081 58ac
00000090: 7fea e10a d222 0869 7fd5 fa04 59fb 220d
000000a0: 7f09 fd6e fa24 00d1 fb04 cd00 cb5c 81c1
000000b0: 8112 0cfc ea05 e6ed d4ca 071f 8143 50fd
000000c0: 7ffd 03fb b4f4 18f9 16f4 f2e9 7f37 32ec
000000d0: f489 10cd 1181 69bf f181 1bed f9cb 22f5
000000e0: 9323 170b c0d3 7f5f f335 0a11 ff23 9781
000000f0: 7fde e715 a116 e5f7 10f8 50dd 0981 7224
-127 -6 2 64 -37 38 24 -27
5 45 21 15 29 -35 89 127
-77 16 50 0 -127 -29 22 6
71 -8 -13 -127 -110 21 26 -22
-127 50 -15 -8 51 -13 37 5
-103 -43 21 -25 -127 7 -5 72
-31 -127 25 -25 6 11 -9 17
-67 -15 2 90 127 -27 -36 11
106 -15 -1 -127 8 -35 -78 -42
9 -126 16 -25 -17 127 -45 66
-112 4 -2 19 -127 49 72 -26
100 20 39 23 -44 -30 -17 -127
-4 19 40 -1 8 -96 127 60
41 -34 -3 -14 101 127 105 -38
127 49 5 19 -77 -11 -16 -6
-37 -127 30 -22 9 12 2 28
-52 -36 -25 0 -127 -2 11 23
-13 99 -114 1 -16 -127 88 -84
127 -22 -31 10 -46 34 8 105
127 -43 -6 4 89 -5 34 13
127 9 -3 110 -6 36 0 -47
-5 4 -51 0 -53 92 -127 -63
-127 18 12 -4 -22 5 -26 -19
-44 -54 7 31 -127 67 80 -3
127 -3 3 -5 -76 -12 24 -7
22 -12 -14 -23 127 55 50 -20
-12 -119 16 -51 17 -127 105 -65
-15 -127 27 -19 -7 -53 34 -11
-109 35 23 11 -64 -45 127 95
-13 53 10 17 -1 35 -105 -127
127 -34 -25 21 -95 22 -27 -9
16 -8 80 -35 9 -127 114 36

model_1/block_2_project/Conv2D i1 [8, 1, 1, 48]
00000000: b1fc d4f8 04da fd13 8c79 d57b 5e10 5de9
00000010: 08ce 06ea 05ed f2d8 1496 fc3e e21e 24c9
00000020: 03b1 7620 f301 f1e6 7f0f 42e8 df16 e6e7
00000030: fc17 6904 01de 0ab4 1c00 130a e508 0781
00000040: 0fbd 0100 e21a 20dc f4f4 1f03 0800 1100
00000050: 090c 2306 f1d5 39b9 fe29 011c f510 1001
00000060: 14d7 0bde 2422 ffe0 09fe f50c f33e 0bff
00000070: da7f e3e3 f016 def4 7607 02f7 e9f6 09d6
00000080: faf3 fc08 0301 e9fa 16ef f2fb 0413 f0e3
00000090: 01b1 f406 0cfe 0000 fde8 170e 1200 34fe
000000a0: efe8 fe19 041a e503 112a 0302 f702 7ff9
000000b0: 0811 f800 e9ee fd0c f60b fc20 ff07 0116
000000c0: 950e 0303 06e9 01fa 37d8 1bf0 e505 ede9
000000d0: ffff 0320 10e6 0a07 fe32 0667 f600 fbdb
000000e0: fc81 d708 07f6 0503 cefe f217 cd04 0507
000000f0: e626 0a10 dd20 003a 100f 1b0e f8d7 012a
-79 -4 -44 -8 4 -38 -3 19
-116 121 -43 123 94 16 93 -23
8 -50 6 -22 5 -19 -14 -40
20 -106 -4 62 -30 30 36 -55
3 -79 118 32 -13 1 -15 -26
127 15 66 -24 -33 22 -26 -25
-4 23 105 4 1 -34 10 -76
28 0 19 10 -27 8 7 -127
15 -67 1 0 -30 26 32 -36
-12 -12 31 3 8 0 17 0
9 12 35 6 -15 -43 57 -71
-2 41 1 28 -11 16 16 1
20 -41 11 -34 36 34 -1 -32
9 -2 -11 12 -13 62 11 -1
-38 127 -29 -29 -16 22 -34 -12
118 7 2 -9 -23 -10 9 -42
-6 -13 -4 8 3 1 -23 -6
22 -17 -14 -5 4 19 -16 -29
1 -79 -12 6 12 -2 0 0
-3 -24 23 14 18 0 52 -2
-17 -24 -2 25 4 26 -27 3
17 42 3 2 -9 2 127 -7
8 17 -8 0 -23 -18 -3 12
-10 11 -4 32 -1 7 1 22
-107 14 3 3 6 -23 1 -6
55 -40 27 -16 -27 5 -19 -23
-1 -1 3 32 16 -26 10 7
-2 50 6 103 -10 0 -5 -37
-4 -127 -41 8 7 -10 5 3
-50 -2 -14 23 -51 4 5 7
-26 38 10 16 -35 32 0 58
16 15 27 14 -8 -41 1 42

model_1/block_2_depthwise_BN/FusedBatchNormV3;model_1/block_2_depthwise/depthwise;model_1/block_3_depthwise/depthwise i1 [1, 3, 3, 48]
00000000: 02fd 156b 0450 fe1b 120b 0a0a f7f7 d407
00000010: fd08 e88d f8ea 7ff9 fe09 fa08 fb04 1164
00000020: 161d 26e8 0221 fd05 10bb f9f6 1302 faf7
00000030: 7f0b 0f81 1c55 0d0a 7d7f 072e d1e8 0508
00000040: 7fc8 c3c8 9c19 9310 1148 e2ac 1714 0b87
00000050: 07c5 7f0c d8d1 f877 b09f e204 e0f6 8114
00000060: e0fe 080e ff40 0511 1e0a f023 f4fc 1104
00000070: 971c fc4d def5 edfb fec5 fd1d ee03 05ed
00000080: 08ea 12ef 002e 28f4 3126 f00a d702 fefb
00000090: 7e06 019c 0de4 21f0 0b0b f339 f9ff 14df
000000a0: 00cf c3a9 0ab7 82ef 0668 f281 f71f 0d97
000000b0: 11cc 007f fd39 d62b c081 27a7 d4f3 f3fb
000000c0: 1a81 8173 8181 8181 81a2 7f81 7f7f 2481
000000d0: ac7f 7f96 7f7f 717f 7f81 811d 8181 607f
000000e0: 817f e6d9 7f81 7f7f 7fb1 7f7f 7f85 646a
000000f0: 3805 31f2 05c3 2c13 ea10 94fa 01d7 7f05
2 -3 21 107 4 80 -2 27
18 11 10 10 -9 -9 -44 7
-3 8 -24 -115 -8 -22 127 -7
-2 9 -6 8 -5 4 17 100
22 29 38 -24 2 33 -3 5
16 -69 -7 -10 19 2 -6 -9
127 11 15 -127 28 85 13 10
125 127 7 46 -47 -24 5 8
127 -56 -61 -56 -100 25 -109 16
17 72 -30 -84 23 20 11 -121
7 -59 127 12 -40 -47 -8 119
-80 -97 -30 4 -32 -10 -127 20
-32 -2 8 14 -1 64 5 17
30 10 -16 35 -12 -4 17 4
-105 28 -4 77 -34 -11 -19 -5
-2 -59 -3 29 -18 3 5 -19
8 -22 18 -17 0 46 40 -12
49 38 -16 10 -41 2 -2 -5
126 6 1 -100 13 -28 33 -16
11 11 -13 57 -7 -1 20 -33
0 -49 -61 -87 10 -73 -126 -17
6 104 -14 -127 -9 31 13 -105
17 -52 0 127 -3 57 -42 43
-64 -127 39 -89 -44 -13 -13 -5
26 -127 -127 115 -127 -127 -127 -127
-127 -94 127 -127 127 127 36 -127
-84 127 127 -106 127 127 113 127
127 -127 -127 29 -127 -127 96 127
-127 127 -26 -39 127 -127 127 127
127 -79 127 127 127 -123 100 106
56 5 49 -14 5 -61 44 19
-22 16 -108 -6 1 -41 127 5

model_1/block_2_expand/Conv2D i1 [48, 1, 1, 8]
00000000: 4a1d 0af1 7f1d d9e6 fbef fd7f 0c01 0b1f
00000010: 2481 ee3a ebb9 5a08 7fed f810 f6d1 ff05
00000020: 08d2 7fe6 ebd4 0ba3 2fe2 f5ef 7f1c f600
00000030: 0758 ed7f 1425 b5d6 027f f504 f9f2 17f6
00000040: 7f26 f90c e8f2 10e4 811b 0416 28fe fc08
00000050: ccd0 007f 3123 e20c 8118 128f 5206 f0b1
00000060: 7f17 0a15 c3f5 fbdf fd72 81e3 fa5a bd3d
00000070: b8f0 f97f 1204 feec 067f fdfe fde4 16cf
00000080: ea8e d50a e681 78a8 077f 07f3 1556 96eb
00000090: 0f23 81ff 0824 e943 8104 12fb ab05 3646
000000a0: 81f5 18fa 48d4 2f20 da04 f610 8100 04eb
000000b0: 81d6 f1f0 34e7 3e39 ece2 f9ef fd5a 81a6
000000c0: f92b 8107 0e2c f349 63d5 197f cb05 03c3
000000d0: f9fc 0008 fc66 7fe5 3ff0 070e 7f17 2cf9
000000e0: ec73 b816 1056 e27f f806 fc03 0058 81b8
000000f0: 08fa fd81 0000 01f2 bb08 f104 81f9 0ffe
74 29 10 -15 127 29 -39 -26
-5 -17 -3 127 12 1 11 31
36 -127 -18 58 -21 -71 90 8
127 -19 -8 16 -10 -47 -1 5
8 -46 127 -26 -21 -44 11 -93
47 -30 -11 -17 127 28 -10 0
7 88 -19 127 20 37 -75 -42
2 127 -11 4 -7 -14 23 -10
127 38 -7 12 -24 -14 16 -28
-127 27 4 22 40 -2 -4 8
-52 -48 0 127 49 35 -30 12
-127 24 18 -113 82 6 -16 -79
127 23 10 21 -61 -11 -5 -33
-3 114 -127 -29 -6 90 -67 61
-72 -16 -7 127 18 4 -2 -20
6 127 -3 -2 -3 -28 22 -49
-22 -114 -43 10 -26 -127 120 -88
7 127 7 -13 21 86 -106 -21
15 35 -127 -1 8 36 -23 67
-127 4 18 -5 -85 5 54 70
-127 -11 24 -6 72 -44 47 32
-38 4 -10 16 -127 0 4 -21
-127 -42 -15 -16 52 -25 62 57
-20 -30 -7 -17 -3 90 -127 -90
-7 43 -127 7 14 44 -13 73
99 -43 25 127 -53 5 3 -61
-7 -4 0 8 -4 102 127 -27
63 -16 7 14 127 23 44 -7
-20 115 -72 22 16 86 -30 127
-8 6 -4 3 0 88 -127 -72
8 -6 -3 -127 0 0 1 -14
-69 8 -15 4 -127 -7 15 -2

model_1/block_1_project/Conv2D i1 [8, 1, 1, 48]
00000000: f702 0dae 0720 070b fc08 ff00 5e00 0105
00000010: 00f9 f600 4dfd 0008 1b28 0c1b fc06 0381
00000020: 0b05 fcff ebfc ee23 09e0 f609 0200 0400
00000030: dff5 00f5 341b df4f 1401 e0e6 0600 162e
00000040: 0027 15c5 0114 7f10 e0fe 3201 20f8 0fee
00000050: 0af2 f9ef 10ca 11ff f7f4 acf9 d107 c6a0
00000060: bb14 0213 3103 211a f72e 0e04 fe00 032d
00000070: 000b 8115 fe0c 06f4 d6fb 2402 081f 1b05
00000080: 0ef8 f7f4 100c 0300 27f7 da03 1ac7 160f
00000090: 01fd ff05 fb22 04fc 4709 fe05 2400 dff5
000000a0: 00fd f405 fa01 05f3 f4f6 f5fa fb00 f8fa
000000b0: cd27 cf01 07fe 1281 0207 09c7 0302 0603
000000c0: 02fb 5424 01f0 fffb 02fd 05f9 b200 f609
000000d0: 000d 0605 4009 fefe f22c 0030 f7fb 0263
000000e0: 070a 0501 0ef5 faf1 fc81 07ff 04fd fd03
000000f0: f330 09ff 0729 1a0a ec1c 0839 1100 8108
-9 2 13 -82 7 32 7 11
-4 8 -1 0 94 0 1 5
0 -7 -10 0 77 -3 0 8
27 40 12 27 -4 6 3 -127
11 5 -4 -1 -21 -4 -18 35
9 -32 -10 9 2 0 4 0
-33 -11 0 -11 52 27 -33 79
20 1 -32 -26 6 0 22 46
0 39 21 -59 1 20 127 16
-32 -2 50 1 32 -8 15 -18
10 -14 -7 -17 16 -54 17 -1
-9 -12 -84 -7 -47 7 -58 -96
-69 20 2 19 49 3 33 26
-9 46 14 4 -2 0 3 45
0 11 -127 21 -2 12 6 -12
-42 -5 36 2 8 31 27 5
14 -8 -9 -12 16 12 3 0
39 -9 -38 3 26 -57 22 15
1 -3 -1 5 -5 34 4 -4
71 9 -2 5 36 0 -33 -11
0 -3 -12 5 -6 1 5 -13
-12 -10 -11 -6 -5 0 -8 -6
-51 39 -49 1 7 -2 18 -127
2 7 9 -57 3 2 6 3
2 -5 84 36 1 -16 -1 -5
2 -3 5 -7 -78 0 -10 9
0 13 6 5 64 9 -2 -2
-14 44 0 48 -9 -5 2 99
7 10 5 1 14 -11 -6 -15
-4 -127 7 -1 4 -3 -3 3
-13 48 9 -1 7 41 26 10
-20 28 8 57 17 0 -127 8

model_1/block_1_depthwise_BN/FusedBatchNormV3;model_1/block_1_depthwise/depthwise;model_1/block_3_depthwise/depthwise i1 [1, 3, 3, 48]
00000000: d5ec f8f1 07d9 b1bb e5d0 0a43 24b9 72d4
00000010: 8fae 26fa febb 8eb0 de85 c1e8 470f 5d1a
00000020: 81a6 fa38 1330 814e b4f3 6595 fdda aa6a
00000030: 4c0e e4e3 3a81 81ad 3bb3 8c70 25ae 003d
00000040: cc94 3c07 0c94 81bc fa81 89d3 ca14 c637
00000050: 1c81 4253 0d4c a37f 8107 7a81 02e7 815f
00000060: e02b 05fb be94 c6ef 55f8 8125 08b9 9cf4
00000070: 81e6 1c0e f1b5 ddeb f5e1 c9f2 f510 e808
00000080: 69aa 471f 0d27 fa10 b204 0ab1 f004 c90f
00000090: aa81 d3d6 f535 6397 e595 ed72 5ac0 1b9e
000000a0: 87a2 5ab4 28ab 9781 2a8e b2d7 7fc2 7f53
000000b0: d4aa f256 deb1 9458 293c 6897 a589 5174
000000c0: 7fad 8181 7f27 5e81 6281 907f 7ff2 f97f
000000d0: c481 7f81 7f81 888a 7fa1 8181 8781 b87f
000000e0: 1b8f 7f7f bb81 9e59 3d7f 7f8c 9081 7e7f
000000f0: cb21 c2ac 87e9 1edc 7fec b524 39ba e7d3
-43 -20 -8 -15 7 -39 -79 -69
-27 -48 10 67 36 -71 114 -44
-113 -82 38 -6 -2 -69 -114 -80
-34 -123 -63 -24 71 15 93 26
-127 -90 -6 56 19 48 -127 78
-76 -13 101 -107 -3 -38 -86 106
76 14 -28 -29 58 -127 -127 -83
59 -77 -116 112 37 -82 0 61
-52 -108 60 7 12 -108 -127 -68
-6 -127 -119 -45 -54 20 -58 55
28 -127 66 83 13 76 -93 127
-127 7 122 -127 2 -25 -127 95
-32 43 5 -5 -66 -108 -58 -17
85 -8 -127 37 8 -71 -100 -12
-127 -26 28 14 -15 -75 -35 -21
-11 -31 -55 -14 -11 16 -24 8
105 -86 71 31 13 39 -6 16
-78 4 10 -79 -16 4 -55 15
-86 -127 -45 -42 -11 53 99 -105
-27 -107 -19 114 90 -64 27 -98
-121 -94 90 -76 40 -85 -105 -127
42 -114 -78 -41 127 -62 127 83
-44 -86 -14 86 -34 -79 -108 88
41 60 104 -105 -91 -119 81 116
127 -83 -127 -127 127 39 94 -127
98 -127 -112 127 127 -14 -7 127
-60 -127 127 -127 127 -127 -120 -118
127 -95 -127 -127 -121 -127 -72 127
27 -113 127 127 -69 -127 -98 89
61 127 127 -116 -112 -127 126 127
-53 33 -62 -84 -121 -23 30 -36
127 -20 -75 36 57 -70 -25 -45

model_1/block_1_expand/Conv2D i1 [48, 1, 1, 8]
00000000: 0a81 29d4 1de9 d115 4352 e8ac 09e4 a97f
00000010: 1b06 d07c 407f 285c 4f42 ac7f a8ee f60b
00000020: df90 370e f806 d881 0c10 ef2c 05f8 2a7f
00000030: 28f5 81ad 65fb 18ce 7f0d 1be7 1b05 55cd
00000040: 0bbd 0b7f 0c13 e98a 71a2 1d08 ea05 8162
00000050: 8feb 8c17 f7e3 8136 dcce fc93 81e8 34e4
00000060: 1009 d843 b0e6 3e7f 0000 0000 0000 0000
00000070: f5d9 f408 467f 312a 37fd 1181 4925 c350
00000080: 0000 0000 0000 0000 121f 7f0a edee 0a29
00000090: 598f 2233 0321 810a 81ee 1e4b c2c0 a53c
000000a0: 251c da5d e681 fa35 3c1f 7f08 eee4 440e
000000b0: acf6 81fc 080d 9f0e af7f f3ef f9ed 63bf
000000c0: 03ca cd5d fdc1 5c7f 0a1a 101b 577f ced0
000000d0: b2e3 8103 061b b007 05f2 dd0d de7f 2b36
000000e0: f5ed e635 217f 3c35 6f23 7f0e e8ee 5cf0
000000f0: b47f eaee 0bfe 5bcf e2b3 f10d 1fbf 7f7b
10 -127 41 -44 29 -23 -47 21
67 82 -24 -84 9 -28 -87 127
27 6 -48 124 64 127 40 92
79 66 -84 127 -88 -18 -10 11
-33 -112 55 14 -8 6 -40 -127
12 16 -17 44 5 -8 42 127
40 -11 -127 -83 101 -5 24 -50
127 13 27 -25 27 5 85 -51
11 -67 11 127 12 19 -23 -118
113 -94 29 8 -22 5 -127 98
-113 -21 -116 23 -9 -29 -127 54
-36 -50 -4 -109 -127 -24 52 -28
16 9 -40 67 -80 -26 62 127
0 0 0 0 0 0 0 0
-11 -39 -12 8 70 127 49 42
55 -3 17 -127 73 37 -61 80
0 0 0 0 0 0 0 0
18 31 127 10 -19 -18 10 41
89 -113 34 51 3 33 -127 10
-127 -18 30 75 -62 -64 -91 60
37 28 -38 93 -26 -127 -6 53
60 31 127 8 -18 -28 68 14
-84 -10 -127 -4 8 13 -97 14
-81 127 -13 -17 -7 -19 99 -65
3 -54 -51 93 -3 -63 92 127
10 26 16 27 87 127 -50 -48
-78 -29 -127 3 6 27 -80 7
5 -14 -35 13 -34 127 43 54
-11 -19 -26 53 33 127 60 53
111 35 127 14 -24 -18 92 -16
-76 127 -22 -18 11 -2 91 -49
-30 -77 -15 13 31 -65 127 123

model_1/expanded_conv_project/Conv2D i1 [8, 1, 1, 16]
00000000: 00f1 0400 7ffd 0101 0082 a1fc 007c ff00
00000010: 00e1 fe5a 480e 0e06 00f6 7fd2 001d ea00
00000020: 0006 fbf4 c307 09fe 0100 ed00 007f f600
00000030: 00f4 f981 530f 491e 0140 fd2b 00fd 1100
00000040: 002e e726 c426 7f10 00c1 12f6 00f7 0e00
00000050: 00ed f500 e8e8 f70d ff08 fdd8 00f8 7f00
00000060: 000a ff04 31ed eaff ff91 7641 007f 3b00
00000070: 000a f77f 06fd 1c0d ff46 ce49 00fb 2d00
0 -15 4 0 127 -3 1 1
0 -126 -95 -4 0 124 -1 0
0 -31 -2 90 72 14 14 6
0 -10 127 -46 0 29 -22 0
0 6 -5 -12 -61 7 9 -2
1 0 -19 0 0 127 -10 0
0 -12 -7 -127 83 15 73 30
1 64 -3 43 0 -3 17 0
0 46 -25 38 -60 38 127 16
0 -63 18 -10 0 -9 14 0
0 -19 -11 0 -24 -24 -9 13
-1 8 -3 -40 0 -8 127 0
0 10 -1 4 49 -19 -22 -1
-1 -111 118 65 0 127 59 0
0 10 -9 127 6 -3 28 13
-1 70 -50 73 0 -5 45 0

model_1/expanded_conv_depthwise_BN/FusedBatchNormV3;model_1/expanded_conv_depthwise/depthwise;model_1/block_5_project/Conv2D i1 [1, 3, 3, 16]
00000000: 9413 ae81 26be 50b3 a6fd f81d 8105 36b7
00000010: 3319 817f 7f81 7f81 ab7f 8134 9705 7fe7
00000020: 18e8 5afe b744 a24a a1e5 03f0 3d01 9be3
00000030: 817f eb0d d310 e40b e400 0393 cf08 e3f2
00000040: b2d7 c7f1 f8e7 08e3 94a7 15f4 9881 0117
00000050: 0e01 4002 0223 e71e 8106 fe02 eb0c fd2b
00000060: 8db8 4502 f928 d931 b400 ff04 2802 e517
00000070: 17fc 1ffe e429 de13 83f3 0054 c600 e491
00000080: 15f9 1300 040f 0914 8d04 ff81 6b03 1181
-108 19 -82 -127 38 -66 80 -77
-90 -3 -8 29 -127 5 54 -73
51 25 -127 127 127 -127 127 -127
-85 127 -127 52 -105 5 127 -25
24 -24 90 -2 -73 68 -94 74
-95 -27 3 -16 61 1 -101 -29
-127 127 -21 13 -45 16 -28 11
-28 0 3 -109 -49 8 -29 -14
-78 -41 -57 -15 -8 -25 8 -29
-108 -89 21 -12 -104 -127 1 23
14 1 64 2 2 35 -25 30
-127 6 -2 2 -21 12 -3 43
-115 -72 69 2 -7 40 -39 49
-76 0 -1 4 40 2 -27 23
23 -4 31 -2 -28 41 -34 19
-125 -13 0 84 -58 0 -28 -111
21 -7 19 0 4 15 9 20
-115 4 -1 -127 107 3 17 -127

model_1/Conv1/Conv2D i1 [16, 3, 3, 3]
00000000: 0000 0000 0000 0000 0000 0000 0000 0000
00000010: 0000 0000 0000 0000 0000 002c fa1f f9e4
00000020: 0f81 8bbf 01f8 00e9 fdfc 03e1 06fa 0bfd
00000030: f7fe fc28 ec0c 1def f54e 69f8 25c7 fd04
00000040: 01f7 447f dd10 eff1 2cae 114d c7e6 21ba
00000050: 09fc 2108 1d63 1902 07fb 0c2d 103c 7f1b
00000060: f5e8 fefe 0204 1316 04fd f3f9 2d3c 0a14
00000070: 480e f400 1235 514d 2964 411b 1ef9 424e
00000080: 3d3f 7f2c ed0f 1f08 0896 fd09 a9f9 24ec
00000090: 03da 81fd dc96 fe18 f2fe 10f2 050e fe07
000000a0: 2404 16be 232e a72a 06e9 0824 9e40 4281
000000b0: 4e06 e311 12db 0e10 d61f f50b 02cc 1e01
000000c0: 8ff1 0bdf 2607 e005 fc81 b903 f50c 0ace
000000d0: 27ee e21d fede 25fa 7f54 6e7c 536d 6f61
000000e0: 696c 1860 6719 6253 355b 6c14 5e66 1761
000000f0: 5a37 5cec fd0a eef0 faf8 fbf1 5d66 f74c
0 0 0 0 0 0 0 0
0 0 0 0 0 0 0 0
0 0 0 0 0 0 0 0
0 0 0 44 -6 31 -7 -28
15 -127 -117 -65 1 -8 0 -23
-3 -4 3 -31 6 -6 11 -3
-9 -2 -4 40 -20 12 29 -17
-11 78 105 -8 37 -57 -3 4
1 -9 68 127 -35 16 -17 -15
44 -82 17 77 -57 -26 33 -70
9 -4 33 8 29 99 25 2
7 -5 12 45 16 60 127 27
-11 -24 -2 -2 2 4 19 22
4 -3 -13 -7 45 60 10 20
72 14 -12 0 18 53 81 77
41 100 65 27 30 -7 66 78
61 63 127 44 -19 15 31 8
8 -106 -3 9 -87 -7 36 -20
3 -38 -127 -3 -36 -106 -2 24
-14 -2 16 -14 5 14 -2 7
36 4 22 -66 35 46 -89 42
6 -23 8 36 -98 64 66 -127
78 6 -29 17 18 -37 14 16
-42 31 -11 11 2 -52 30 1
-113 -15 11 -33 38 7 -32 5
-4 -127 -71 3 -11 12 10 -50
39 -18 -30 29 -2 -34 37 -6
127 84 110 124 83 109 111 97
105 108 24 96 103 25 98 83
53 91 108 20 94 102 23 97
90 55 92 -20 -3 10 -18 -16
-6 -8 -5 -15 93 102 -9 76
