Models/Model1.tflite (tflite, 57032 bytes, 21 tensors)

model_1/logits/Conv2D i1 [10, 1, 1, 32]
00000000: d2e9 ce7f 06ad 0e23 08c0 ed9e e86d 19e6
00000010: cade c8f8 ce7d 52b6 3ae2 3797 eb01 1b03
00000020: 163a 22ee cf35 bdc8 fc0c cb45 f913 2f25
00000030: f4e7 a3e5 2bba a1d2 8132 ee2e 2805 0242
00000040: e7d5 fc4a 53d7 469f f052 db5a 4829 8f5e
00000050: 0ee4 81df 920c e623 9331 120b d607 5120
00000060: 7fef 6faa 1bd6 e316 8bea 07b9 34dc c97c
00000070: fd45 b928 8f3c b89c a4a2 3805 2c8b b817
00000080: ca44 fbba 324a 1a50 4bf1 0ade 0691 8506
00000090: f61f d772 dbe5 9f40 934b 7f1e b7a7 a10e
000000a0: 2607 4dde 05f9 4b41 d4f6 1ed3 eeac f6f2
000000b0: 0805 81c4 0ac9 8cd2 f533 242e 11ff d622
000000c0: 2959 3bcb d307 2502 0bfd 3ce6 3040 8fac
000000d0: 1914 b38f cced e3d4 81c0 c533 d1e7 03f2
000000e0: a0d2 18ce 4e51 43d3 f8f6 9f9c 2207 ca46
000000f0: 33d8 471b 62f3 c60f ca17 3d1b 81e3 c3d3
-46 -23 -50 127 6 -83 14 35
8 -64 -19 -98 -24 109 25 -26
-54 -34 -56 -8 -50 125 82 -74
58 -30 55 -105 -21 1 27 3
22 58 34 -18 -49 53 -67 -56
-4 12 -53 69 -7 19 47 37
-12 -25 -93 -27 43 -70 -95 -46
-127 50 -18 46 40 5 2 66
-25 -43 -4 74 83 -41 70 -97
-16 82 -37 90 72 41 -113 94
14 -28 -127 -33 -110 12 -26 35
-109 49 18 11 -42 7 81 32
127 -17 111 -86 27 -42 -29 22
-117 -22 7 -71 52 -36 -55 124
-3 69 -71 40 -113 60 -72 -100
-92 -94 56 5 44 -117 -72 23
-54 68 -5 -70 50 74 26 80
75 -15 10 -34 6 -111 -123 6
-10 31 -41 114 -37 -27 -97 64
-109 75 127 30 -73 -89 -95 14
38 7 77 -34 5 -7 75 65
-44 -10 30 -45 -18 -84 -10 -14
8 5 -127 -60 10 -55 -116 -46
-11 51 36 46 17 -1 -42 34
41 89 59 -53 -45 7 37 2
11 -3 60 -26 48 64 -113 -84
25 20 -77 -113 -52 -19 -29 -44
-127 -64 -59 51 -47 -25 3 -14
-96 -46 24 -50 78 81 67 -45
-8 -10 -97 -100 34 7 -54 70
51 -40 71 27 98 -13 -58 15
-54 23 61 27 -127 -29 -61 -45

model_1/head/Conv2D i1 [32, 1, 1, 96]
00000000: ddc7 4706 5ef2 b3ab 15ad adec 420f c23e
00000010: b7df b0bf b19c ff5e aa06 42b6 3733 e7d9
00000020: 36db ac2b 88b8 bb0b 39b5 b069 01b2 5ec6
00000030: f6a3 156a b1f3 922e 194c 69a4 cbf8 d822
00000040: 011b 2f3a 0f59 6181 5e8c ff46 bc08 c30f
00000050: 161f 3613 bcdf ad7f 0165 d1bd 0721 180f
00000060: da2a e109 f331 1d21 43c1 ae5b 19f0 1e35
00000070: 4fbe 4c31 c8fa 2116 311e d566 05e9 58c0
00000080: 1b3d f92d 3127 1cc9 be0c eebf e02d d6db
00000090: f3a3 6725 1a1c b1b9 0126 3a42 d56a c1ba
000000a0: c022 3c1b 3916 0407 a57f c333 3dde e24a
000000b0: c150 c2b1 1c53 cfc7 2f2f 37f4 4d29 0fec
000000c0: 2724 cb53 04c0 426a ad5b df6e 60f1 3bac
000000d0: c1c9 42e5 8be5 5a0e 0652 4f05 b75c 4760
000000e0: b0e7 96ba b24f 7fe8 94c4 0c02 a271 e3b8
000000f0: 4dc3 56c4 de38 fbd4 c253 e007 e538 e620
-35 -57 71 6 94 -14 -77 -85
21 -83 -83 -20 66 15 -62 62
-73 -33 -80 -65 -79 -100 -1 94
-86 6 66 -74 55 51 -25 -39
54 -37 -84 43 -120 -72 -69 11
57 -75 -80 105 1 -78 94 -58
-10 -93 21 106 -79 -13 -110 46
25 76 105 -92 -53 -8 -40 34
1 27 47 58 15 89 97 -127
94 -116 -1 70 -68 8 -61 15
22 31 54 19 -68 -33 -83 127
1 101 -47 -67 7 33 24 15
-38 42 -31 9 -13 49 29 33
67 -63 -82 91 25 -16 30 53
79 -66 76 49 -56 -6 33 22
49 30 -43 102 5 -23 88 -64
27 61 -7 45 49 39 28 -55
-66 12 -18 -65 -32 45 -42 -37
-13 -93 103 37 26 28 -79 -71
1 38 58 66 -43 106 -63 -70
-64 34 60 27 57 22 4 7
-91 127 -61 51 61 -34 -30 74
-63 80 -62 -79 28 83 -49 -57
47 47 55 -12 77 41 15 -20
39 36 -53 83 4 -64 66 106
-83 91 -33 110 96 -15 59 -84
-63 -55 66 -27 -117 -27 90 14
6 82 79 5 -73 92 71 96
-80 -25 -106 -70 -78 79 127 -24
-108 -60 12 2 -94 113 -29 -72
77 -61 86 -60 -34 56 -5 -44
-62 83 -32 7 -27 56 -26 32

model_1/block_6_expand/Conv2D i1 [96, 1, 1, 16]
00000000: e952 1c81 f0e6 f9c4 de07 1034 f5e1 0e42
00000010: cf22 c4ff e5c2 2ac2 4329 ce0d f2f4 1f81
00000020: f210 dc18 0012 a9c3 7fed fd28 de46 810f
00000030: 09ea 1985 0af3 18eb 4913 2202 d420 0b7f
00000040: d838 3410 fcea fd26 dc24 fedd 81f9 fd3b
00000050: f547 7f14 2f57 db43 d635 e4ed 2de4 96ff
00000060: 1bc4 7fa3 2fec db4e cda4 43d1 db47 bf5b
00000070: f17f e6df 5c12 11c6 7956 f7fb 04dd 2817
00000080: 12b9 1bb2 17c3 07b3 0c31 34fe 0a7f 4e44
00000090: 08ea 057f 31f9 2ecd d54c 1eed face 1ee8
000000a0: 33fc c081 f2e8 e63c f5af 0301 1edd 0021
000000b0: ec21 14de 43f1 49ba ae1f 001d fd7f daf3
000000c0: 2be4 81e3 19ed 2ced ed6e e0cb ae61 284d
000000d0: e202 e813 0681 fb09 07fc 0b00 0cec 0302
000000e0: e805 69fd 6215 8190 1cee 2703 ecbe fbb5
000000f0: d700 c5d5 0ae6 7f2e d205 7af4 2e67 0309
-23 82 28 -127 -16 -26 -7 -60
-34 7 16 52 -11 -31 14 66
-49 34 -60 -1 -27 -62 42 -62
67 41 -50 13 -14 -12 31 -127
-14 16 -36 24 0 18 -87 -61
127 -19 -3 40 -34 70 -127 15
9 -22 25 -123 10 -13 24 -21
73 19 34 2 -44 32 11 127
-40 56 52 16 -4 -22 -3 38
-36 36 -2 -35 -127 -7 -3 59
-11 71 127 20 47 87 -37 67
-42 53 -28 -19 45 -28 -106 -1
27 -60 127 -93 47 -20 -37 78
-51 -92 67 -47 -37 71 -65 91
-15 127 -26 -33 92 18 17 -58
121 86 -9 -5 4 -35 40 23
18 -71 27 -78 23 -61 7 -77
12 49 52 -2 10 127 78 68
8 -22 5 127 49 -7 46 -51
-43 76 30 -19 -6 -50 30 -24
51 -4 -64 -127 -14 -24 -26 60
-11 -81 3 1 30 -35 0 33
-20 33 20 -34 67 -15 73 -70
-82 31 0 29 -3 127 -38 -13
43 -28 -127 -29 25 -19 44 -19
-19 110 -32 -53 -82 97 40 77
-30 2 -24 19 6 -127 -5 9
7 -4 11 0 12 -20 3 2
-24 5 105 -3 98 21 -127 -112
28 -18 39 3 -20 -66 -5 -75
-41 0 -59 -43 10 -26 127 46
-46 5 122 -12 46 103 3 9

model_1/block_5_project/Conv2D i1 [16, 1, 1, 96]
00000000: e1f9 04df 15f3 d4fe 1ef0 fe0b f0f9 df0a
00000010: fff5 f101 12ef f5f6 1a11 f07f 08de 2af3
00000020: fa02 07f9 fb0c cd01 04e9 151b f407 0713
00000030: 2402 f81b 09ec ff3e f70d f0e2 f82b 04ef
00000040: d4c5 df27 fa12 1cea f8e4 f9e8 db16 0a0e
00000050: 02eb 2116 f3ef e8a4 fbef 09f9 2fe3 d6fb
00000060: 44ab a7e6 70e7 3431 f5a6 d0ea ebf3 e14a
00000070: cc18 332e 1448 fec9 cee4 0abb 2cdc cd3d
00000080: e31a fdfb fc05 36f4 ed37 a2fb de31 01f6
00000090: fecc fcbd f21e 252d c5f6 b4d9 06e4 21de
000000a0: d467 03e2 f0e0 fc13 3199 e610 0fab 3706
000000b0: 1bc8 0c1f a424 d3f9 11c5 fb24 37ed 4b7f
000000c0: 2538 c7ea 4352 fc59 f0a9 e9e0 06fb 13ee
000000d0: 0114 e752 02eb 752c 250e 15ab 29fa 3cd5
000000e0: 1112 e11c bac3 1b1b d5e8 e925 46e3 eb05
000000f0: cb0a e6d6 7ff7 e75a 37ea fdfa 11df 12d8
-31 -7 4 -33 21 -13 -44 -2
30 -16 -2 11 -16 -7 -33 10
-1 -11 -15 1 18 -17 -11 -10
26 17 -16 127 8 -34 42 -13
-6 2 7 -7 -5 12 -51 1
4 -23 21 27 -12 7 7 19
36 2 -8 27 9 -20 -1 62
-9 13 -16 -30 -8 43 4 -17
-44 -59 -33 39 -6 18 28 -22
-8 -28 -7 -24 -37 22 10 14
2 -21 33 22 -13 -17 -24 -92
-5 -17 9 -7 47 -29 -42 -5
68 -85 -89 -26 112 -25 52 49
-11 -90 -48 -22 -21 -13 -31 74
-52 24 51 46 20 72 -2 -55
-50 -28 10 -69 44 -36 -51 61
-29 26 -3 -5 -4 5 54 -12
-19 55 -94 -5 -34 49 1 -10
-2 -52 -4 -67 -14 30 37 45
-59 -10 -76 -39 6 -28 33 -34
-44 103 3 -30 -16 -32 -4 19
49 -103 -26 16 15 -85 55 6
27 -56 12 31 -92 36 -45 -7
17 -59 -5 36 55 -19 75 127
37 56 -57 -22 67 82 -4 89
-16 -87 -23 -32 6 -5 19 -18
1 20 -25 82 2 -21 117 44
37 14 21 -85 41 -6 60 -43
17 18 -31 28 -70 -61 27 27
-43 -24 -23 37 70 -29 -21 5
-53 10 -26 -42 127 -9 -25 90
55 -22 -3 -6 17 -33 18 -40

model_1/block_5_depthwise_BN/FusedBatchNormV3;model_1/block_5_depthwise/depthwise;model_1/block_6_expand/Conv2D i1 [1, 3, 3, 96]
00000000: d3b5 f67f 164e 5fcb f7ef effc e4fb 2302
00000010: f7d8 1a15 1d81 7f0c aa0f 31de 8581 2717
00000020: 0d2d 3ded e2f9 21ff f31e a049 18c3 292d
00000030: ef32 e718 06f4 142e a1d1 bfea f803 0527
00000040: 45e5 4c0d f815 147f 1717 2201 f516 7f05
00000050: f10a ea14 7b1e c2ee 03dd f1da 02e9 f219
00000060: 7f81 4f67 d57f 3094 4604 ec7f 7f9e f30e
00000070: 0e7f 7d94 7fae 5042 888c c0db cf2e c7ed
00000080: ab46 81a8 d7f2 d349 ff7f 7f51 d393 8cd0
00000090: f181 2857 46de 304d ce2d ad92 d5dc c242
000000a0: 49c1 1c1d b425 ed54 707f 1314 ff3d dd3f
000000b0: 407f 7fe9 fa4a 9d7f 869c 0181 a681 dd63
000000c0: b5ef 1daa 0ef4 5302 50e0 e111 effc f8f3
000000d0: f8f0 05fd f19b 2206 816d 05c5 7032 f409
000000e0: fd1c 0edb fa25 180d 190e 943d 13ef 2710
000000f0: f20b ee0a f7fd 0214 ba07 d934 032a 2500
-45 -75 -10 127 22 78 95 -53
-9 -17 -17 -4 -28 -5 35 2
-9 -40 26 21 29 -127 127 12
-86 15 49 -34 -123 -127 39 23
13 45 61 -19 -30 -7 33 -1
-13 30 -96 73 24 -61 41 45
-17 50 -25 24 6 -12 20 46
-95 -47 -65 -22 -8 3 5 39
69 -27 76 13 -8 21 20 127
23 23 34 1 -11 22 127 5
-15 10 -22 20 123 30 -62 -18
3 -35 -15 -38 2 -23 -14 25
127 -127 79 103 -43 127 48 -108
70 4 -20 127 127 -98 -13 14
14 127 125 -108 127 -82 80 66
-120 -116 -64 -37 -49 46 -57 -19
-85 70 -127 -88 -41 -14 -45 73
-1 127 127 81 -45 -109 -116 -48
-15 -127 40 87 70 -34 48 77
-50 45 -83 -110 -43 -36 -62 66
73 -63 28 29 -76 37 -19 84
112 127 19 20 -1 61 -35 63
64 127 127 -23 -6 74 -99 127
-122 -100 1 -127 -90 -127 -35 99
-75 -17 29 -86 14 -12 83 2
80 -32 -31 17 -17 -4 -8 -13
-8 -16 5 -3 -15 -101 34 6
-127 109 5 -59 112 50 -12 9
-3 28 14 -37 -6 37 24 13
25 14 -108 61 19 -17 39 16
-14 11 -18 10 -9 -3 2 20
-70 7 -39 52 3 42 37 0

model_1/block_5_expand/Conv2D i1 [96, 1, 1, 16]
00000000: 416b f34b 0b11 140b 6b43 887d 3181 3784
00000010: 0a2f 14cd 25f1 7f9e 0332 d4ec eff4 f933
00000020: 815f f2f8 4b57 2f58 fd1c 68b2 bb41 ef9a
00000030: 8e38 0255 c035 1e7f 3d2b a4f8 50f6 aed2
00000040: fcc6 1456 ea6a e616 1f06 1723 22fd 81c2
00000050: eaf6 2ed7 20e8 e429 d31f 0281 eb16 b212
00000060: 08f3 49d9 241a e1d2 f30f 36dc 7fd9 d3ed
00000070: 1732 7fc5 06dc f904 8628 d7a0 14fc 4e0b
00000080: 2e11 2e12 b014 0f02 0ce0 3cc0 deee 81d7
00000090: 2495 5b41 2df3 f010 3fce 1a11 f044 81f8
000000a0: dad8 38f7 e4f8 a030 5125 0dee cb7f 32f1
000000b0: 1414 02a3 f4f6 b981 9c23 0dea 05d4 1ed2
000000c0: 130f ddc3 bdfc a11b e0c0 d30a 3866 7f19
000000d0: 08a3 9834 fe81 07eb 3e10 17e5 09e9 6d39
000000e0: f5d3 2403 0ddc 1671 2244 f8c8 2304 b77f
000000f0: f1fc 1d4e fcf5 6fee f181 12d0 15c8 e8fa
65 107 -13 75 11 17 20 11
107 67 -120 125 49 -127 55 -124
10 47 20 -51 37 -15 127 -98
3 50 -44 -20 -17 -12 -7 51
-127 95 -14 -8 75 87 47 88
-3 28 104 -78 -69 65 -17 -102
-114 56 2 85 -64 53 30 127
61 43 -92 -8 80 -10 -82 -46
-4 -58 20 86 -22 106 -26 22
31 6 23 35 34 -3 -127 -62
-22 -10 46 -41 32 -24 -28 41
-45 31 2 -127 -21 22 -78 18
8 -13 73 -39 36 26 -31 -46
-13 15 54 -36 127 -39 -45 -19
23 50 127 -59 6 -36 -7 4
-122 40 -41 -96 20 -4 78 11
46 17 46 18 -80 20 15 2
12 -32 60 -64 -34 -18 -127 -41
36 -107 91 65 45 -13 -16 16
63 -50 26 17 -16 68 -127 -8
-38 -40 56 -9 -28 -8 -96 48
81 37 13 -18 -53 127 50 -15
20 20 2 -93 -12 -10 -71 -127
-100 35 13 -22 5 -44 30 -46
19 15 -35 -61 -67 -4 -95 27
-32 -64 -45 10 56 102 127 25
8 -93 -104 52 -2 -127 7 -21
62 16 23 -27 9 -23 109 57
-11 -45 36 3 13 -36 22 113
34 68 -8 -56 35 4 -73 127
-15 -4 29 78 -4 -11 111 -18
-15 -127 18 -48 21 -56 -24 -6

model_1/block_4_project/Conv2D i1 [16, 1, 1, 96]
00000000: 011e f508 2941 d9d9 28fb 0706 0010 1535
00000010: 01f5 ebf3 5fcc f6df e3f8 d19a f715 2522
00000020: 531b effd 12f6 db11 0110 13e2 f9c8 fd11
00000030: f909 fcfa f8ef fc0b 1e23 e3d5 de04 010c
00000040: 1c03 31f2 12ff e1f4 cb01 040b f6b3 06e2
00000050: 18ed c5b4 3cfb 270e effd 12eb 1817 077f
00000060: 239c 1d30 06e1 eada f1c5 0318 0ebd d5e2
00000070: baff 20f9 d69f f120 7fd4 cf1b e63b f60c
00000080: 09cf d6e7 f9e4 0ced 0bc1 2df6 d1fe 1cfe
00000090: 1d00 29e3 2ac4 2ceb 0612 f1b9 1fea 12d5
000000a0: 02bc 191c 2625 effa a20b 0136 1341 17ce
000000b0: 2fef b209 b02c f60f cf02 f1f8 ecd6 47f6
000000c0: 0b07 13ef 2706 fc39 4002 fc1e 1ad1 3d12
000000d0: dfe3 fd0c f0c5 12d7 07ff ff15 0435 62d0
000000e0: 32ac ec16 fd7f afe7 11f8 0334 d8b4 cf14
000000f0: 33ea c5fe 4307 f4e1 e50b 0b17 fd18 5666
1 30 -11 8 41 65 -39 -39
40 -5 7 6 0 16 21 53
1 -11 -21 -13 95 -52 -10 -33
-29 -8 -47 -102 -9 21 37 34
83 27 -17 -3 18 -10 -37 17
1 16 19 -30 -7 -56 -3 17
-7 9 -4 -6 -8 -17 -4 11
30 35 -29 -43 -34 4 1 12
28 3 49 -14 18 -1 -31 -12
-53 1 4 11 -10 -77 6 -30
24 -19 -59 -76 60 -5 39 14
-17 -3 18 -21 24 23 7 127
35 -100 29 48 6 -31 -22 -38
-15 -59 3 24 14 -67 -43 -30
-70 -1 32 -7 -42 -97 -15 32
127 -44 -49 27 -26 59 -10 12
9 -49 -42 -25 -7 -28 12 -19
11 -63 45 -10 -47 -2 28 -2
29 0 41 -29 42 -60 44 -21
6 18 -15 -71 31 -22 18 -43
2 -68 25 28 38 37 -17 -6
-94 11 1 54 19 65 23 -50
47 -17 -78 9 -80 44 -10 15
-49 2 -15 -8 -20 -42 71 -10
11 7 19 -17 39 6 -4 57
64 2 -4 30 26 -47 61 18
-33 -29 -3 12 -16 -59 18 -41
7 -1 -1 21 4 53 98 -48
50 -84 -20 22 -3 127 -81 -25
17 -8 3 52 -40 -76 -49 20
51 -22 -59 -2 67 7 -12 -31
-27 11 11 23 -3 24 86 102

model_1/block_4_depthwise_BN/FusedBatchNormV3;model_1/block_4_depthwise/depthwise;model_1/block_6_expand/Conv2D i1 [1, 3, 3, 96]
00000000: ec0c e971 f216 bec7 0ff6 62fa 04f8 fd3c
00000010: 0512 db03 4cfe 27de 0211 232c 1811 1932
00000020: fd1b 05f0 0532 c8e6 1807 1c11 afc5 1dfb
00000030: f6ef f7f8 3304 f302 f9dd 16e5 1bfc 7f1b
00000040: f2f8 08cb 4427 00fe 52da 4c09 0f81 214b
00000050: 0109 7ff1 261c e7ef 23fc f250 fa10 fc10
00000060: ce12 f60d 36fa f581 220b 81fb edf5 0664
00000070: 11e6 f4ee 529b 7f19 c4e1 93ee 1e25 cf15
00000080: 780b f0fe e67f c581 0beb e10f 3081 7fd2
00000090: b532 2e03 29c0 1b35 282a 9858 7f1f 07e9
000000a0: 2ddc acfc 29e5 ed33 d1c2 6f00 e4c4 e04c
000000b0: b835 f009 f42e 36d7 e435 f446 81dd 1481
000000c0: fd06 e6b2 0d14 2515 f9fe 0640 00f3 f70d
000000d0: f412 e60d 0d10 1ae0 02e0 070c fc04 2eb1
000000e0: 2d0e 08e6 0d06 dde8 0802 ed09 17e7 17ff
000000f0: 09fb 01f8 0704 f806 f62d 0702 0aec 05f1
-20 12 -23 113 -14 22 -66 -57
15 -10 98 -6 4 -8 -3 60
5 18 -37 3 76 -2 39 -34
2 17 35 44 24 17 25 50
-3 27 5 -16 5 50 -56 -26
24 7 28 17 -81 -59 29 -5
-10 -17 -9 -8 51 4 -13 2
-7 -35 22 -27 27 -4 127 27
-14 -8 8 -53 68 39 0 -2
82 -38 76 9 15 -127 33 75
1 9 127 -15 38 28 -25 -17
35 -4 -14 80 -6 16 -4 16
-50 18 -10 13 54 -6 -11 -127
34 11 -127 -5 -19 -11 6 100
17 -26 -12 -18 82 -101 127 25
-60 -31 -109 -18 30 37 -49 21
120 11 -16 -2 -26 127 -59 -127
11 -21 -31 15 48 -127 127 -46
-75 50 46 3 41 -64 27 53
40 42 -104 88 127 31 7 -23
45 -36 -84 -4 41 -27 -19 51
-47 -62 111 0 -28 -60 -32 76
-72 53 -16 9 -12 46 54 -41
-28 53 -12 70 -127 -35 20 -127
-3 6 -26 -78 13 20 37 21
-7 -2 6 64 0 -13 -9 13
-12 18 -26 13 13 16 26 -32
2 -32 7 12 -4 4 46 -79
45 14 8 -26 13 6 -35 -24
8 2 -19 9 23 -25 23 -1
9 -5 1 -8 7 4 -8 6
-10 45 7 2 10 -20 5 -15

model_1/block_4_expand/Conv2D i1 [96, 1, 1, 16]
00000000: 03fa 657f 55bb 40c5 4ffb c0bb 1427 e7a4
00000010: 335b f8e9 2cf7 4016 367f db48 15c0 63b7
00000020: 0ae4 fc25 f032 e91d ecde f544 e481 48ab
00000030: 797e 0517 81f3 dccf f307 66ad cd52 cbe7
00000040: 10e5 430e ee54 011e c6b7 f106 d881 24ec
00000050: 78c1 c1f5 f184 d4f5 f104 81e2 17e7 f31f
00000060: 81cd 0042 dffa fc1a 83b5 f0de 02fa 0d4b
00000070: fd04 9643 3181 f516 0cf0 f3f2 1517 d509
00000080: 2ccf dfed 0800 e7d9 ee02 cae6 81ec 0b1d
00000090: 17ab fb75 d90e dec9 7fa1 44c1 3941 a94e
000000a0: 87b5 ddc6 5c17 2c44 46bc e028 5598 8125
000000b0: 39e3 8131 2ee2 ea34 e90f e3e1 2007 cd0a
000000c0: 5db7 fe07 f3e6 09bf 1800 81ed ddf2 fc33
000000d0: 5eed 39b3 332f 81dd 2eb1 fed6 ba06 2bea
000000e0: d312 b1cf 3a81 3dda 2629 f197 1c4e 0310
000000f0: 38ee 5816 7c91 a3ec e7c0 9cf7 81e1 065a
3 -6 101 127 85 -69 64 -59
79 -5 -64 -69 20 39 -25 -92
51 91 -8 -23 44 -9 64 22
54 127 -37 72 21 -64 99 -73
10 -28 -4 37 -16 50 -23 29
-20 -34 -11 68 -28 -127 72 -85
121 126 5 23 -127 -13 -36 -49
-13 7 102 -83 -51 82 -53 -25
16 -27 67 14 -18 84 1 30
-58 -73 -15 6 -40 -127 36 -20
120 -63 -63 -11 -15 -124 -44 -11
-15 4 -127 -30 23 -25 -13 31
-127 -51 0 66 -33 -6 -4 26
-125 -75 -16 -34 2 -6 13 75
-3 4 -106 67 49 -127 -11 22
12 -16 -13 -14 21 23 -43 9
44 -49 -33 -19 8 0 -25 -39
-18 2 -54 -26 -127 -20 11 29
23 -85 -5 117 -39 14 -34 -55
127 -95 68 -63 57 65 -87 78
-121 -75 -35 -58 92 23 44 68
70 -68 -32 40 85 -104 -127 37
57 -29 -127 49 46 -30 -22 52
-23 15 -29 -31 32 7 -51 10
93 -73 -2 7 -13 -26 9 -65
24 0 -127 -19 -35 -14 -4 51
94 -19 57 -77 51 47 -127 -35
46 -79 -2 -42 -70 6 43 -22
-45 18 -79 -49 58 -127 61 -38
38 41 -15 -105 28 78 3 16
56 -18 88 22 124 -111 -93 -20
-25 -64 -100 -9 -127 -31 6 90

model_1/block_3_project/Conv2D i1 [16, 1, 1, 48]
00000000: f4fb f913 1802 0e5d cd0a 2204 1003 f00e
00000010: 1af4 01fd 3703 0676 f361 fdf7 14fc 26f5
00000020: e334 0cce 0a27 0b03 a6f3 131e 3522 81d1
00000030: daf6 0912 d7ff fd45 d4dc 06d4 e9ec fffb
00000040: dd7e f00c 0300 e0f2 10db 0919 e0a6 df17
00000050: eaf8 2202 fdce 0909 ece1 7ffd fdfa 1df7
00000060: eff4 eee2 01ba 05ed 0304 001e 1113 f705
00000070: 02ef eaf3 fafc fe81 fb53 fb08 06e6 00ff
00000080: e639 0801 0e09 14f9 d903 e8f9 04f8 0f01
00000090: f620 fee0 fbfb 01ff eefb 0124 8101 f7f9
000000a0: 0400 ea06 e3fe 0210 faf9 0018 fc14 0b0c
000000b0: 0402 1411 f618 2607 0a03 14e1 fdfd 0415
000000c0: 1ce0 0804 1d11 09ec e005 fde3 0407 f314
000000d0: 19ff b304 f000 104b fadb 0338 00ab 1302
000000e0: 0ae1 2381 0a22 00fd e714 01f8 ebe2 0efa
000000f0: 1eff e640 fbfb fc1a 0000 1d06 0834 0903
-12 -5 -7 19 24 2 14 93
-51 10 34 4 16 3 -16 14
26 -12 1 -3 55 3 6 118
-13 97 -3 -9 20 -4 38 -11
-29 52 12 -50 10 39 11 3
-90 -13 19 30 53 34 -127 -47
-38 -10 9 18 -41 -1 -3 69
-44 -36 6 -44 -23 -20 -1 -5
-35 126 -16 12 3 0 -32 -14
16 -37 9 25 -32 -90 -33 23
-22 -8 34 2 -3 -50 9 9
-20 -31 127 -3 -3 -6 29 -9
-17 -12 -18 -30 1 -70 5 -19
3 4 0 30 17 19 -9 5
2 -17 -22 -13 -6 -4 -2 -127
-5 83 -5 8 6 -26 0 -1
-26 57 8 1 14 9 20 -7
-39 3 -24 -7 4 -8 15 1
-10 32 -2 -32 -5 -5 1 -1
-18 -5 1 36 -127 1 -9 -7
4 0 -22 6 -29 -2 2 16
-6 -7 0 24 -4 20 11 12
4 2 20 17 -10 24 38 7
10 3 20 -31 -3 -3 4 21
28 -32 8 4 29 17 9 -20
-32 5 -3 -29 4 7 -13 20
25 -1 -77 4 -16 0 16 75
-6 -37 3 56 0 -85 19 2
10 -31 35 -127 10 34 0 -3
-25 20 1 -8 -21 -30 14 -6
30 -1 -26 64 -5 -5 -4 26
0 0 29 6 8 52 9 3

model_1/block_3_depthwise_BN/FusedBatchNormV3;model_1/block_3_depthwise/depthwise i1 [1, 3, 3, 48]
00000000: 4ba3 6349 38de 6bc2 3da5 b033 39d1 baa7
00000010: 6851 344e 42ba b032 ded5 c0be c040 c08f
00000020: ed2a 4743 bc37 ceeb 33b5 3b3f a00c 50e2
00000030: 589d 7f55 afbb c4ab 5e98 c14b 5294 a054
00000040: d761 567f 5592 364a caac bbad 374f e281
00000050: ac4f 5453 ac52 adf2 4f9f 525b b981 5e99
00000060: 24d0 4726 12d7 cbd8 2adc 0424 22b2 c9fd
00000070: c827 2647 21cd 1e1b e3cf d4e9 1f1f 5aa7
00000080: b22b 2522 e228 daf9 27d3 242e fdf7 25b8
00000090: 5f93 d15e 39ac 7fa7 5890 b853 568f f581
000000a0: 7f6c 4cd8 566c 814a 4bb4 a39e 8159 bbf6
000000b0: a647 6b62 aa52 ae59 559c 575b a96e 60a6
000000c0: 7f81 bd7f 8181 a381 7f81 817f 7f81 ec58
000000d0: be7f 7fd0 7f7f 437f 7f81 8181 337f e40e
000000e0: 817f 7f7f 817f 817f 7f81 7f7f 81f5 7f81
000000f0: 3eb3 dc45 27c0 cac1 35cc c73a 34cc f009
75 -93 99 73 56 -34 107 -62
61 -91 -80 51 57 -47 -70 -89
104 81 52 78 66 -70 -80 50
-34 -43 -64 -66 -64 64 -64 -113
-19 42 71 67 -68 55 -50 -21
51 -75 59 63 -96 12 80 -30
88 -99 127 85 -81 -69 -60 -85
94 -104 -63 75 82 -108 -96 84
-41 97 86 127 85 -110 54 74
-54 -84 -69 -83 55 79 -30 -127
-84 79 84 83 -84 82 -83 -14
79 -97 82 91 -71 -127 94 -103
36 -48 71 38 18 -41 -53 -40
42 -36 4 36 34 -78 -55 -3
-56 39 38 71 33 -51 30 27
-29 -49 -44 -23 31 31 90 -89
-78 43 37 34 -30 40 -38 -7
39 -45 36 46 -3 -9 37 -72
95 -109 -47 94 57 -84 127 -89
88 -112 -72 83 86 -113 -11 -127
127 108 76 -40 86 108 -127 74
75 -76 -93 -98 -127 89 -69 -10
-90 71 107 98 -86 82 -82 89
85 -100 87 91 -87 110 96 -90
127 -127 -67 127 -127 -127 -93 -127
127 -127 -127 127 127 -127 -20 88
-66 127 127 -48 127 127 67 127
127 -127 -127 -127 51 127 -28 14
-127 127 127 127 -127 127 -127 127
127 -127 127 127 -127 -11 127 -127
62 -77 -36 69 39 -64 -54 -63
53 -52 -57 58 52 -52 -16 9

model_1/block_3_expand/Conv2D i1 [48, 1, 1, 8]
00000000: 8102 fe4c e12b 17e6 2b61 3b18 12c1 657f
00000010: dcf0 0411 81e8 ff0c 6dec e089 8111 28f7
00000020: 8142 fef1 59f9 32fd 99dc 17ea 8102 0449
00000030: e481 10f1 fdfe 040e c5f3 0251 7fe8 e808
00000040: 78f7 0381 07f6 d7af 0f81 00ee f050 be36
00000050: 9af6 0120 813e 35eb 5d13 2003 d1ed e881
00000060: 0012 2404 00ba 7f3c 3ad8 14dd 7f5a 6dd5
00000070: 7f0d d912 9e13 050e d481 14de fcf7 f61c
00000080: cddb f8f5 8102 0f09 035b 9ae5 f981 51a0
00000090: 7fe0 d117 bd1e 1e79 7faa c0ec 40fb 2723
000000a0: 7f17 fa5f 001e f9cd f520 c912 d75e 81b8
000000b0: 8117 fff1 f102 e0f1 d1c5 031b 8144 48f0
000000c0: 7fe3 f509 b0f9 f61f 18ee ffec 7f2f 3fe9
000000d0: fbb6 00ee 2381 5ecb f281 22f4 f9c7 21f8
000000e0: 8d21 f0ee 01cc 7f60 f92e 0d0f 081a 9e81
000000f0: 7fff 1f24 9905 d7e4 feed 1bf5 05aa 7f3d
-127 2 -2 76 -31 43 23 -26
43 97 59 24 18 -63 101 127
-36 -16 4 17 -127 -24 -1 12
109 -20 -32 -119 -127 17 40 -9
-127 66 -2 -15 89 -7 50 -3
-103 -36 23 -22 -127 2 4 73
-28 -127 16 -15 -3 -2 4 14
-59 -13 2 81 127 -24 -24 8
120 -9 3 -127 7 -10 -41 -81
15 -127 0 -18 -16 80 -66 54
-102 -10 1 32 -127 62 53 -21
93 19 32 3 -47 -19 -24 -127
0 18 36 4 0 -70 127 60
58 -40 20 -35 127 90 109 -43
127 13 -39 18 -98 19 5 14
-44 -127 20 -34 -4 -9 -10 28
-51 -37 -8 -11 -127 2 15 9
3 91 -102 -27 -7 -127 81 -96
127 -32 -47 23 -67 30 30 121
127 -86 -64 -20 64 -5 39 35
127 23 -6 95 0 30 -7 -51
-11 32 -55 18 -41 94 -127 -72
-127 23 -1 -15 -15 2 -32 -15
-47 -59 3 27 -127 68 72 -16
127 -29 -11 9 -80 -7 -10 31
24 -18 -1 -20 127 47 63 -23
-5 -74 0 -18 35 -127 94 -53
-14 -127 34 -12 -7 -57 33 -8
-115 33 -16 -18 1 -52 127 96
-7 46 13 15 8 26 -98 -127
127 -1 31 36 -103 5 -41 -28
-2 -19 27 -11 5 -86 127 61

model_1/block_2_project/Conv2D i1 [8, 1, 1, 48]
00000000: c8f0 e508 00eb 00fc 816d e348 5806 3eef
00000010: fbea 050d 01f6 ffd4 14aa 1132 f91e 11e4
00000020: f8d1 5c16 f80c eee4 5f04 36e4 f508 f8e9
00000030: ff21 7ffc fed5 0ab0 1e04 0914 e20d 0e81
00000040: 0b9e 1aeb d60a 0edb e6e7 0b11 0800 06ea
00000050: 02ff 1716 f6cb 4eb2 ff3e 0a12 f409 17e9
00000060: 07d8 18d3 2725 04ec 0dfe fb0c ed3f 0603
00000070: d57f e2dc e617 e8e8 7803 fcf3 ef06 06d0
00000080: ffec f006 f900 f1f9 12f8 ecfd fa18 e4d6
00000090: fbad fbfe 06fa f5ff f2fc 0d0d 0c00 2aff
000000a0: fce9 fa15 fb12 e905 0b3c fdfe fb0c 7f00
000000b0: 0500 fcfd ecec f708 f206 ef21 f7fb 0019
000000c0: 8115 0a09 05f1 fafc 26cc 0be5 e602 f5ee
000000d0: 0501 112f 0ce0 01ff f524 fd71 01fa f8e6
000000e0: 009a c01d 03fa fcfe dc05 fc08 ca02 f703
000000f0: e41d 0ffc e027 fd4b 1e0c 160a f0ce fb34
-56 -16 -27 8 0 -21 0 -4
-127 109 -29 72 88 6 62 -17
-5 -22 5 13 1 -10 -1 -44
20 -86 17 50 -7 30 17 -28
-8 -47 92 22 -8 12 -18 -28
95 4 54 -28 -11 8 -8 -23
-1 33 127 -4 -2 -43 10 -80
30 4 9 20 -30 13 14 -127
11 -98 26 -21 -42 10 14 -37
-26 -25 11 17 8 0 6 -22
2 -1 23 22 -10 -53 78 -78
-1 62 10 18 -12 9 23 -23
7 -40 24 -45 39 37 4 -20
13 -2 -5 12 -19 63 6 3
-43 127 -30 -36 -26 23 -24 -24
120 3 -4 -13 -17 6 6 -48
-1 -20 -16 6 -7 0 -15 -7
18 -8 -20 -3 -6 24 -28 -42
-5 -83 -5 -2 6 -6 -11 -1
-14 -4 13 13 12 0 42 -1
-4 -23 -6 21 -5 18 -23 5
11 60 -3 -2 -5 12 127 0
5 0 -4 -3 -20 -20 -9 8
-14 6 -17 33 -9 -5 0 25
-127 21 10 9 5 -15 -6 -4
38 -52 11 -27 -26 2 -11 -18
5 1 17 47 12 -32 1 -1
-11 36 -3 113 1 -6 -8 -26
0 -102 -64 29 3 -6 -4 -2
-36 5 -4 8 -54 2 -9 3
-28 29 15 -4 -32 39 -3 75
30 12 22 10 -16 -50 -5 52

model_1/block_2_depthwise_BN/FusedBatchNormV3;model_1/block_2_depthwise/depthwise;model_1/block_3_depthwise/depthwise i1 [1, 3, 3, 48]
00000000: 02fc 136a 044f ff1c 140a 0808 f4f6 d508
00000010: fc09 e890 fbea 7ff8 fe07 fc08 fb04 0f64
00000020: 161f 29e6 0221 0005 0fba f7f8 1201 f7f8
00000030: 7f0a 0e81 1b54 0c0a 7f7f 072b cce8 0607
00000040: 7fc9 c2c5 a219 920f 1146 e1ab 1715 0a87
00000050: 07c7 7f0b d9d0 fd75 b09a e103 e2f5 8114
00000060: dffe 070f 003e 0612 200a f020 f1fc 1103
00000070: 941c fb44 e3f6 ecfa fbc4 fe1d ef05 05ed
00000080: 0aec 14ef 002f 28f7 3128 f20b d702 fff9
00000090: 7c06 009e 0ee6 23f0 0a0a f436 f6fe 13df
000000a0: ffcf c5ad 0bb7 83f0 0565 f081 f720 0b94
000000b0: 11cb ff7f fe39 da2c c181 26a8 d7ef f2fb
000000c0: 1b81 8170 8181 8181 81a4 7f81 7f7f 2381
000000d0: aa7f 7f99 7f7f 717f 7f81 811c 8181 5e7f
000000e0: 817f e3d9 7f81 7f7f 7fac 7f7f 7f82 6868
000000f0: 3707 30f2 05c3 2c13 eb0f 98f8 ffd7 7f04
2 -4 19 106 4 79 -1 28
20 10 8 8 -12 -10 -43 8
-4 9 -24 -112 -5 -22 127 -8
-2 7 -4 8 -5 4 15 100
22 31 41 -26 2 33 0 5
15 -70 -9 -8 18 1 -9 -8
127 10 14 -127 27 84 12 10
127 127 7 43 -52 -24 6 7
127 -55 -62 -59 -94 25 -110 15
17 70 -31 -85 23 21 10 -121
7 -57 127 11 -39 -48 -3 117
-80 -102 -31 3 -30 -11 -127 20
-33 -2 7 15 0 62 6 18
32 10 -16 32 -15 -4 17 3
-108 28 -5 68 -29 -10 -20 -6
-5 -60 -2 29 -17 5 5 -19
10 -20 20 -17 0 47 40 -9
49 40 -14 11 -41 2 -1 -7
124 6 0 -98 14 -26 35 -16
10 10 -12 54 -10 -2 19 -33
-1 -49 -59 -83 11 -73 -125 -16
5 101 -16 -127 -9 32 11 -108
17 -53 -1 127 -2 57 -38 44
-63 -127 38 -88 -41 -17 -14 -5
27 -127 -127 112 -127 -127 -127 -127
-127 -92 127 -127 127 127 35 -127
-86 127 127 -103 127 127 113 127
127 -127 -127 28 -127 -127 94 127
-127 127 -29 -39 127 -127 127 127
127 -84 127 127 127 -126 104 104
55 7 48 -14 5 -61 44 19
-21 15 -104 -8 -1 -41 127 4

model_1/block_2_expand/Conv2D i1 [48, 1, 1, 8]
00000000: 3f31 02fe 7f14 bdca 04ff ff7f 0906 0803
00000010: 2381 f441 f0c2 4b05 7fdf 0419 08e4 0b07
00000020: f2ca 7ffc f9df 0a9d 3afb ef00 7f11 05fb
00000030: df6b 177f 2d25 a7d2 087f fd03 11ed 15f8
00000040: 7f2a fd04 d5f0 0fdd 81f8 f822 3a1e ea09
00000050: b4e8 197f 4635 d2e5 8104 1c90 1818 dbb2
00000060: 7f2a 0d05 d2f2 03c3 ea5a 8101 ef56 bf38
00000070: 8fc4 f97f 061a d3e8 027f 05fe 03ed 0cd3
00000080: df81 e119 d395 56d8 127f fefc 124c a8ec
00000090: 181d 8107 003d cd49 9715 f5d7 81f1 261f
000000a0: 81fd f50e 2fe7 4615 df0e fc05 81f7 0ae6
000000b0: 81d3 0af2 5efc 244f efe0 08f0 ff5b 81ae
000000c0: 0031 8104 052c ee4a 50f0 047f bef2 00c4
000000d0: 02f1 f0ff fc5e 7fdf 42ea 0407 7f1f 38ef
000000e0: ec6c c010 0b47 e97f fb01 f7fd 067f 8791
000000f0: 0101 fe81 f801 f3f0 d00c 07fe 8108 2406
63 49 2 -2 127 20 -67 -54
4 -1 -1 127 9 6 8 3
35 -127 -12 65 -16 -62 75 5
127 -33 4 25 8 -28 11 7
-14 -54 127 -4 -7 -33 10 -99
58 -5 -17 0 127 17 5 -5
-33 107 23 127 45 37 -89 -46
8 127 -3 3 17 -19 21 -8
127 42 -3 4 -43 -16 15 -35
-127 -8 -8 34 58 30 -22 9
-76 -24 25 127 70 53 -46 -27
-127 4 28 -112 24 24 -37 -78
127 42 13 5 -46 -14 3 -61
-22 90 -127 1 -17 86 -65 56
-113 -60 -7 127 6 26 -45 -24
2 127 5 -2 3 -19 12 -45
-33 -127 -31 25 -45 -107 86 -40
18 127 -2 -4 18 76 -88 -20
24 29 -127 7 0 61 -51 73
-105 21 -11 -41 -127 -15 38 31
-127 -3 -11 14 47 -25 70 21
-33 14 -4 5 -127 -9 10 -26
-127 -45 10 -14 94 -4 36 79
-17 -32 8 -16 -1 91 -127 -82
0 49 -127 4 5 44 -18 74
80 -16 4 127 -66 -14 0 -60
2 -15 -16 -1 -4 94 127 -33
66 -22 4 7 127 31 56 -17
-20 108 -64 16 11 71 -23 127
-5 1 -9 -3 6 127 -121 -111
1 1 -2 -127 -8 1 -13 -16
-48 12 7 -2 -127 8 36 6

model_1/block_1_project/Conv2D i1 [8, 1, 1, 48]
00000000: f5fc 099f 1122 020f 0503 02fc 6c00 0006
00000010: 00fd f902 5904 0302 2624 0e04 02fe 0581
00000020: 0805 fe00 e907 e81f 05e1 f802 03fd 01fd
00000030: dff7 01f6 320f d851 1405 e2eb 0700 1927
00000040: 0023 10ca ff14 7f13 e103 3506 15f9 13ef
00000050: 05f9 edeb 0aca 0d00 f5ed abfa d407 cca4
00000060: c614 020f 2e02 1e21 f632 0800 fc00 052b
00000070: 0014 810c 0409 09f1 def7 2215 0e1a 0e05
00000080: 02f8 f6ea 1105 fb03 22f7 dc03 15cd 0c0b
00000090: fb04 0308 f613 fffd 4313 fa01 1f00 dff5
000000a0: 00fb f103 0001 00f1 f3ee f2f3 fc04 fbfe
000000b0: d433 c3fb 0407 ff81 0006 fcc4 fc05 0003
000000c0: fff9 5c25 03f4 fffa 0604 fefb b400 f501
000000d0: 000c 0409 41fa 01fd f527 fd4c edfe fd64
000000e0: 080b 01fe 0aec f7f4 ff81 0af9 07fb 01ff
000000f0: f42d 0cf9 072a 150c e520 0c3e 1400 81fc
-11 -4 9 -97 17 34 2 15
5 3 2 -4 108 0 0 6
0 -3 -7 2 89 4 3 2
38 36 14 4 2 -2 5 -127
8 5 -2 0 -23 7 -24 31
5 -31 -8 2 3 -3 1 -3
-33 -9 1 -10 50 15 -40 81
20 5 -30 -21 7 0 25 39
0 35 16 -54 -1 20 127 19
-31 3 53 6 21 -7 19 -17
5 -7 -19 -21 10 -54 13 0
-11 -19 -85 -6 -44 7 -52 -92
-58 20 2 15 46 2 30 33
-10 50 8 0 -4 0 5 43
0 20 -127 12 4 9 9 -15
-34 -9 34 21 14 26 14 5
2 -8 -10 -22 17 5 -5 3
34 -9 -36 3 21 -51 12 11
-5 4 3 8 -10 19 -1 -3
67 19 -6 1 31 0 -33 -11
0 -5 -15 3 0 1 0 -15
-13 -18 -14 -13 -4 4 -5 -2
-44 51 -61 -5 4 7 -1 -127
0 6 -4 -60 -4 5 0 3
-1 -7 92 37 3 -12 -1 -6
6 4 -2 -5 -76 0 -11 1
0 12 4 9 65 -6 1 -3
-11 39 -3 76 -19 -2 -3 100
8 11 1 -2 10 -20 -9 -12
-1 -127 10 -7 7 -5 1 -1
-12 45 12 -7 7 42 21 12
-27 32 12 62 20 0 -127 -4

model_1/block_1_depthwise_BN/FusedBatchNormV3;model_1/block_1_depthwise/depthwise;model_1/block_3_depthwise/depthwise i1 [1, 3, 3, 48]
00000000: d5e9 f8f0 06da b0bc e4ce 0643 25b9 72d5
00000010: 8fab 24fb 02bb 92ae dd81 c0e6 460f 5c1a
00000020: 81a5 fb38 1230 814f b6f4 6a95 fcd8 ac6b
00000030: 4c0c e4e3 3b81 81ae 3bb7 8d6d 26ae 003d
00000040: cc93 3b07 0a93 81ba fc85 87d5 c816 c637
00000050: 1c81 4257 0c4b a07f 8107 7e81 00e5 825f
00000060: e22a 05fa c094 c6ee 56fa 8125 08b9 9df4
00000070: 81e9 1b0b f1b6 dce9 f6e9 c5ec f613 e808
00000080: 69aa 4720 0f26 f611 b303 07af ed02 c90f
00000090: aa81 d2d3 f737 5f96 e896 ed72 5dc0 1ba0
000000a0: 87a4 57b4 2cab 9b81 2c85 b4d4 7fc7 7f53
000000b0: d3a6 f254 deb1 965b 293c 6893 a48c 5377
000000c0: 7fab 8181 7f27 5d81 6281 937f 7ff2 fb7f
000000d0: c481 7f81 7f81 8989 7f9f 8181 8481 bc7f
000000e0: 1c8f 7f7f bd81 9f5b 3e7f 7f8a 8e81 7f7f
000000f0: cb1d c0a8 8bea 1edb 7fee b821 38ba e7d4
-43 -23 -8 -16 6 -38 -80 -68
-28 -50 6 67 37 -71 114 -43
-113 -85 36 -5 2 -69 -110 -82
-35 -127 -64 -26 70 15 92 26
-127 -91 -5 56 18 48 -127 79
-74 -12 106 -107 -4 -40 -84 107
76 12 -28 -29 59 -127 -127 -82
59 -73 -115 109 38 -82 0 61
-52 -109 59 7 10 -109 -127 -70
-4 -123 -121 -43 -56 22 -58 55
28 -127 66 87 12 75 -96 127
-127 7 126 -127 0 -27 -126 95
-30 42 5 -6 -64 -108 -58 -18
86 -6 -127 37 8 -71 -99 -12
-127 -23 27 11 -15 -74 -36 -23
-10 -23 -59 -20 -10 19 -24 8
105 -86 71 32 15 38 -10 17
-77 3 7 -81 -19 2 -55 15
-86 -127 -46 -45 -9 55 95 -106
-24 -106 -19 114 93 -64 27 -96
-121 -92 87 -76 44 -85 -101 -127
44 -123 -76 -44 127 -57 127 83
-45 -90 -14 84 -34 -79 -106 91
41 60 104 -109 -92 -116 83 119
127 -85 -127 -127 127 39 93 -127
98 -127 -109 127 127 -14 -5 127
-60 -127 127 -127 127 -127 -119 -119
127 -97 -127 -127 -124 -127 -68 127
28 -113 127 127 -67 -127 -97 91
62 127 127 -118 -114 -127 127 127
-53 29 -64 -88 -117 -22 30 -37
127 -18 -72 33 56 -70 -25 -44

model_1/block_1_expand/Conv2D i1 [48, 1, 1, 8]
00000000: 0d81 38d0 27eb cb17 5c5c e681 fcf2 a177
00000010: 1911 d07f 3e7d 2b61 4b42 b37f a9f1 ff10
00000020: d4a8 3c00 dff9 e081 0c05 dd2a 09f1 2c7f
00000030: 2ff7 81a2 65fb 1ed1 7f08 09e3 2004 5ac8
00000040: fca4 0675 fe17 ff81 6a93 1a09 ec15 816d
00000050: 8fbe 8116 e1ec 9634 e6e0 f4a1 81f2 3aee
00000060: 0905 ce42 addc 427f 0000 0000 0000 0000
00000070: f9e0 ff0f 377f 3224 2c04 ff81 2e35 d64a
00000080: 0000 0000 0000 0000 0b26 7f0b d5ec 252d
00000090: 5181 1027 f119 9207 81eb 2c30 aee1 a44d
000000a0: 1e26 d86e df81 fa3b 3b22 7f04 0300 3b10
000000b0: b7f3 81f8 0709 a308 a475 f2fe 00e7 7fb8
000000c0: 01c8 ce51 f6c7 5f7f 1426 1b25 577f c7ce
000000d0: b2f0 81f8 0311 a604 06d1 e110 bc7f 3e33
000000e0: 0fec da31 1a7f 3b46 621a 7f10 e9f4 6af3
000000f0: bb7f 02eb 1908 53d3 dea1 e1ff 0db2 7f72
13 -127 56 -48 39 -21 -53 23
92 92 -26 -127 -4 -14 -95 119
25 17 -48 127 62 125 43 97
75 66 -77 127 -87 -15 -1 16
-44 -88 60 0 -33 -7 -32 -127
12 5 -35 42 9 -15 44 127
47 -9 -127 -94 101 -5 30 -47
127 8 9 -29 32 4 90 -56
-4 -92 6 117 -2 23 -1 -127
106 -109 26 9 -20 21 -127 109
-113 -66 -127 22 -31 -20 -106 52
-26 -32 -12 -95 -127 -14 58 -18
9 5 -50 66 -83 -36 66 127
0 0 0 0 0 0 0 0
-7 -32 -1 15 55 127 50 36
44 4 -1 -127 46 53 -42 74
0 0 0 0 0 0 0 0
11 38 127 11 -43 -20 37 45
81 -127 16 39 -15 25 -110 7
-127 -21 44 48 -82 -31 -92 77
30 38 -40 110 -33 -127 -6 59
59 34 127 4 3 0 59 16
-73 -13 -127 -8 7 9 -93 8
-92 117 -14 -2 0 -25 127 -72
1 -56 -50 81 -10 -57 95 127
20 38 27 37 87 127 -57 -50
-78 -16 -127 -8 3 17 -90 4
6 -47 -31 16 -68 127 62 51
15 -20 -38 49 26 127 59 70
98 26 127 16 -23 -12 106 -13
-69 127 2 -21 25 8 83 -45
-34 -95 -31 -1 13 -78 127 114

model_1/expanded_conv_project/Conv2D i1 [8, 1, 1, 16]
00000000: 00f5 05ff 7ffe 09ff 0184 a3fc 006f 0700
00000010: 00ea fa56 4507 1b01 fff8 7fd0 001e ec00
00000020: 00fe 06f3 c702 0e02 0104 f002 007f fe00
00000030: 00fb e881 4f19 4a0f 013b fd2f 00fc 1000
00000040: 002e e522 bd19 7f05 01bd 12f5 00f8 0800
00000050: 00ed fdfe ebe9 f80d 0009 fcd6 00fc 7f00
00000060: 0004 0001 32f8 ee00 018f 784a 007f 4200
00000070: 0016 eb7f 08f8 1003 ff43 cc4b 00f7 2900
0 -11 5 -1 127 -2 9 -1
1 -124 -93 -4 0 111 7 0
0 -22 -6 86 69 7 27 1
-1 -8 127 -48 0 30 -20 0
0 -2 6 -13 -57 2 14 2
1 4 -16 2 0 127 -2 0
0 -5 -24 -127 79 25 74 15
1 59 -3 47 0 -4 16 0
0 46 -27 34 -67 25 127 5
1 -67 18 -11 0 -8 8 0
0 -19 -3 -2 -21 -23 -8 13
0 9 -4 -42 0 -4 127 0
0 4 0 1 50 -8 -18 0
1 -113 120 74 0 127 66 0
0 22 -21 127 8 -8 16 3
-1 67 -52 75 0 -9 41 0

model_1/expanded_conv_depthwise_BN/FusedBatchNormV3;model_1/expanded_conv_depthwise/depthwise;model_1/block_5_project/Conv2D i1 [1, 3, 3, 16]
00000000: 9413 ae82 26bd 50b4 a6fd f81e 8105 36b7
00000010: 3319 817f 7f81 7f81 ab7f 8133 9706 7fe7
00000020: 18e9 5afe b744 a34c a1e5 03f1 3d02 9be3
00000030: 817f e90d d40f e50e e400 0296 cf08 e3f2
00000040: b2d8 c6f2 f8e6 09e4 94a7 15f4 9881 0117
00000050: 0e02 4002 0222 e820 8106 fe02 eb0c fd2b
00000060: 8db9 4402 f927 da33 b400 ff03 2802 e517
00000070: 17fd 1efe e428 df14 83f3 0052 c600 e491
00000080: 15fa 1200 030f 0a15 8d04 ff81 6b03 1181
-108 19 -82 -126 38 -67 80 -76
-90 -3 -8 30 -127 5 54 -73
51 25 -127 127 127 -127 127 -127
-85 127 -127 51 -105 6 127 -25
24 -23 90 -2 -73 68 -93 76
-95 -27 3 -15 61 2 -101 -29
-127 127 -23 13 -44 15 -27 14
-28 0 2 -106 -49 8 -29 -14
-78 -40 -58 -14 -8 -26 9 -28
-108 -89 21 -12 -104 -127 1 23
14 2 64 2 2 34 -24 32
-127 6 -2 2 -21 12 -3 43
-115 -71 68 2 -7 39 -38 51
-76 0 -1 3 40 2 -27 23
23 -3 30 -2 -28 40 -33 20
-125 -13 0 82 -58 0 -28 -111
21 -6 18 0 3 15 10 21
-115 4 -1 -127 107 3 17 -127

model_1/Conv1/Conv2D i1 [16, 3, 3, 3]
00000000: 0000 0000 0000 0000 0000 0000 0000 0000
00000010: 0000 0000 0000 0000 0000 0023 fb11 f1ee
00000020: 0181 9bb7 f7f9 f1df 02eb f3e3 f5ef 0dee
00000030: ed04 ed18 effe 2ff5 ff53 6d01 39d6 1019
00000040: 0b05 4b7f e722 fb03 39b6 1952 d1f2 2dc8
00000050: 1b05 2109 285b 1804 02f6 2130 1a54 7f24
00000060: f6e7 ff0f 0711 2b1b 0e03 f9ff 262b f717
00000070: 4708 fc06 1a30 2f3a 2d62 3b2d 2709 5c48
00000080: 4257 7f3a 091d 3d0d 019b 030a b6fe 21e9
00000090: 07d0 8101 d087 000d e7ff 05e2 03fd eb01
000000a0: 0def 13c0 2127 a724 06e9 081d a03b 3681
000000b0: 4402 df0e 0cd7 0a06 d018 f002 ffe4 1900
000000c0: 86e1 fce6 2000 f2fc fa81 acf5 f501 fce1
000000d0: 1feb f10f f6ee 20f8 7b7f 747a 7f73 7c7e
000000e0: 737c 7e73 797c 717c 7d72 7a7c 7279 7c71
000000f0: 7a7c 71ee 0c11 ef01 fd08 08f3 5172 f83f
0 0 0 0 0 0 0 0
0 0 0 0 0 0 0 0
0 0 0 0 0 0 0 0
0 0 0 35 -5 17 -15 -18
1 -127 -101 -73 -9 -7 -15 -33
2 -21 -13 -29 -11 -17 13 -18
-19 4 -19 24 -17 -2 47 -11
-1 83 109 1 57 -42 16 25
11 5 75 127 -25 34 -5 3
57 -74 25 82 -47 -14 45 -56
27 5 33 9 40 91 24 4
2 -10 33 48 26 84 127 36
-10 -25 -1 15 7 17 43 27
14 3 -7 -1 38 43 -9 23
71 8 -4 6 26 48 47 58
45 98 59 45 39 9 92 72
66 87 127 58 9 29 61 13
1 -101 3 10 -74 -2 33 -23
7 -48 -127 1 -48 -121 0 13
-25 -1 5 -30 3 -3 -21 1
13 -17 19 -64 33 39 -89 36
6 -23 8 29 -96 59 54 -127
68 2 -33 14 12 -41 10 6
-48 24 -16 2 -1 -28 25 0
-122 -31 -4 -26 32 0 -14 -4
-6 -127 -84 -11 -11 1 -4 -31
31 -21 -15 15 -10 -18 32 -8
123 127 116 122 127 115 124 126
115 124 126 115 121 124 113 124
125 114 122 124 114 121 124 113
122 124 113 -18 12 17 -17 1
-3 8 8 -13 81 114 -8 63
